outlier/outliers.tflite (tflite, 10744 bytes, 9 tensors)

dense_78/bias f4 [12]
0.013061426 0.015539639 0.024657732 -0.006043625 0.02528016 -0.031330656 0.0036529556 -0.0044418266
0.049947016 0.022817336 -0.0041544405 -0.06579492
00000000: 97ff 553c f899 7e3c 03ff c93c 9a09 c6bb
00000010: 5718 cf3c 9354 00bd 6d66 6f3b be8c 91bb
00000020: 3e95 4c3d 6ceb ba3c f921 88bb 7dbf 86bd

dense_77/bias f4 [24]
0.0054536625 0.03331109 0.005108524 -0.012511985 0.0577997 -0.02670983 -0.082833454 0.06127694
0.07175336 0.0051918128 -0.0030870894 -0.01381707 0.0046322234 -0.06572576 0.041890953 -0.07118784
-0.03690662 -0.017818542 0.08813847 0.09378466 -0.014340359 0.018823288 -0.04844989 0.004431929
00000000: a3b4 b23b 3671 083d 6865 a73b 12ff 4cbc
00000010: 61bf 6c3d 93ce dabc 96a4 a9bd 87fd 7a3d
00000020: 6df3 923d 1520 aa3b c450 4abb fe60 62bc
00000030: e8c9 973b 3a9b 86bd d995 2b3d eeca 91bd
00000040: 652b 17bd 31f8 91bc f181 b43d 2c12 c03d
00000050: d3f3 6abc 4c33 9a3c 6473 46bd b739 913b

dense_76/bias f4 [48]
0.03234656 0.023871476 -0.032126453 -0.0047505936 0.06995877 0.09407664 0.01633621 -0.03352611
0.056230616 0.021106381 -0.015595933 -0.055857383 -0.023506548 -0.02845934 0.05673935 0.005493584
0.0996743 0.10842551 -0.025093092 0.019905148 0.056152217 0.0710611 -0.00702597 0.011452301
0.026799306 0.072761215 0.17412871 -0.0068494505 -0.0041851443 -0.0017616099 0.16714033 0.07511468
0.045735385 0.09464206 -0.03675845 0.1195812 -0.011092568 -0.020541353 0.041996714 0.13877434
0.025616031 0.03996492 -0.027872816 0.08635496 -0.042780597 -0.04941649 -0.010724236 -0.07853401
00000000: d47d 043d 1d8e c33c 0797 03bd deaa 9bbb
00000010: 8b46 8f3d 41ab c03d 84d3 853c ad52 09bd
00000020: 1352 663d 4ae7 ac3c 1686 7fbc b6ca 64bd
00000030: ce90 c0bc 9023 e9bc 8567 683d 8603 b43b
00000040: 0a22 cc3d 320e de3d 0790 cdbc 1f10 a33c
00000050: deff 653d 7b88 913d 1c3a e6bb 6fa2 3b3c
00000060: 388a db3c d503 953d cc4e 323e 5b71 e0bb
00000070: 8923 89bb d2e5 e6ba d626 2b3e bad5 993d
00000080: 0755 3b3d b2d3 c13d 0790 16bd fde6 f43d
00000090: 9abd 35bc 5746 a8bc bf04 2c3d dc1a 0e3e
000000a0: b6d8 d13c 42b2 233d 8855 e4bc dfda b03d
000000b0: b53a 2fbd f268 4abd b5b4 2fbc 70d6 a0bd

model_19/normalization_19/truediv;model_19/normalization_19/Sqrt f4 [1, 10]
0.017599488 0.0016302003 1.3379534 0.9337273 1.7362062 1.067381 2.3415306 1.6939011
3.5584148e-06 5.9728584
00000000: cd2c 903c 72ac d53a 0f42 ab3f c108 6f3f
00000010: 013c de3f f19f 883f a3db 1540 c0d1 d83f
00000020: 1acd 6e36 a821 bf40

Const f4 [1, 10]
111.21778 764.8791 1.0014964 0.6031927 0.34635693 1.5116515 0.6729548 0.8445955
9710.376 0.71632606
00000000: 816f de42 4338 3f44 0931 803f d66a 1a3f
00000010: b255 b13e cc7d c13f c446 2c3f 6937 583f
00000020: 81b9 1746 2561 373f

model_19/dense_76/MatMul f4 [48, 10]
-0.13528864 -0.074458666 -0.07162521 0.13059218 -0.13102774 0.3632271 -0.17179643 -0.030589819
-0.027835786 -0.28703952 -0.012812455 -0.23714273 -0.18501478 -0.30234924 -0.12058888 0.22894396
0.18274266 0.08567823 -0.049775537 -0.3333457 0.15196398 -0.016863422 0.122117616 0.13054913
-0.052443877 0.27379957 0.11452944 -0.20611055 -0.017564068 -0.23141225 -0.17095676 0.07909902
0.21099858 -0.37369812 -0.1448807 0.3205965 -0.05892598 -0.17729606 -0.14142112 -0.12463934
-0.007882107 -0.032117367 -0.045783434 -0.0948011 -0.28926146 -0.19825761 -0.019744322 0.18250504
0.11305654 0.24182773 -0.04307181 -0.3043235 0.0253389 -0.0054422054 -0.031156499 -0.30505446
-0.31790787 0.029230595 -0.1508037 -0.031053541 -0.20422755 -0.26423293 -0.3901859 -0.00093889446
-0.128673 0.16465864 0.15535678 0.117724515 -0.2095313 0.20715009 0.2501928 -0.15178257
-0.2622749 -0.30962452 0.23746756 0.27375156 0.0065901238 -0.1074844 -0.22187386 0.051224943
-0.043740436 0.35857055 -0.1009246 0.22849718 0.14776376 -0.3580741 -0.09794411 -0.26588798
-0.1529727 0.0044966494 -0.31039202 -0.25774345 0.019513087 0.26810175 -0.12625046 0.20690468
-0.32018492 0.019879626 0.22616377 -0.025254173 0.24130993 0.19122401 0.078488275 0.067083195
0.067847714 -0.20511328 0.0052752555 -0.009910487 -0.28292984 0.29592615 -0.0906569 -0.12979428
0.24347796 0.28603327 0.3019709 0.0075096507 0.14730527 -0.14229591 -0.086798266 0.037126742
0.018152146 0.29751602 -0.26273608 0.09790468 0.027890064 0.14613208 0.1724435 -0.061457377
0.1546194 0.15896046 0.30974537 -0.059894398 0.27626613 -0.06502716 -0.23839138 -0.15247972
-0.17292671 0.22830696 -0.15292422 -0.116480306 -0.1685867 0.2843777 -0.14902417 -0.17133433
-0.121894725 0.10007363 -0.115189515 -0.31069195 -0.20856115 0.046834078 -0.23514198 -0.04869236
-0.098054685 -0.23448734 -0.09821363 0.007289587 0.140206 0.3100271 0.19442141 0.14897317
-0.030143587 0.058783647 -0.2581143 -0.25995573 0.17932574 -0.15014073 -0.033262994 0.28067905
0.32043606 -0.014319435 0.09988202 -0.058040813 0.3299819 0.0060967375 0.15773301 -0.17634822
-0.2768915 -0.2900788 0.16145031 0.14159665 0.1091045 -0.23464015 -0.17977531 -0.3304129
-0.07320806 -0.0513089 0.0419653 0.10060314 -0.21014157 0.26327088 -0.34162387 -0.2223532
-0.09458183 -0.11298513 0.19292066 -0.05692132 -0.040480573 0.14058366 0.024876714 -0.0028817223
0.053418137 -0.08972047 -0.3402781 0.14148036 -0.41012323 -0.06318229 -0.17257611 0.0051851
0.15649876 0.21758452 0.2291556 0.25372547 0.17579263 -0.37844384 0.14276752 -0.26367995
-0.037117578 -0.04022265 -0.37972206 0.12686177 0.15718807 -0.29727104 -0.056930438 0.014892902
-0.10815499 0.26873383 -0.057194535 0.09899429 -0.102241345 -0.15268373 0.31131098 0.3278076
0.16164899 -0.311076 0.122605816 -0.09386242 0.26080325 -0.09684115 0.054008126 0.015345585
-0.17338398 -0.085695855 0.21007676 0.24944232 -0.172673 0.20591865 -0.23782738 -0.1172659
0.060246207 -0.095344454 -0.11110862 -0.20511115 -0.1743248 0.18361656 -0.39310557 0.09541063
00000000: 1b89 0abe c97d 98bd 3db0 92bd f5b9 053e
00000010: 232c 06be e7f8 b93e 67eb 2fbe 8097 fabc
00000020: e007 e4bc d8f6 92be 55eb 51bc 8bd5 72be
00000030: 8474 3dbe 85cd 9abe 4df7 f6bd 4970 6a3e
00000040: e420 3b3e 1178 af3d 6fe1 4bbd 4aac aabe
00000050: 729c 1b3e 2925 8abc cd18 fa3d acae 053e
00000060: 64cf 56bd 752f 8c3e 698e ea3d a50e 53be
00000070: 85e2 8fbc 55f7 6cbe 4a0f 2fbe abfe a13d
00000080: 0310 583e 5c55 bfbe 9b5b 14be 3925 a43e
00000090: 5e5c 71bd 198d 35be b3d0 10be e942 ffbd
000000a0: f423 01bc 808d 03bd 6987 3bbd 1427 c2bd
000000b0: 141a 94be 0b04 4bbe d8be a1bc 9ae2 3a3e
000000c0: 308a e73d b0a1 773e 116c 30bd 4ad0 9bbe
000000d0: 8693 cf3c 8754 b2bb ea3b ffbc 1930 9cbe
000000e0: d2c4 a2be 0075 ef3c 496c 1abe ff63 febc
000000f0: 0721 51be 8a49 87be 72c6 c7be 2420 76ba
00000100: dbc2 03be 469c 283e d915 1f3e 8d19 f13d
00000110: 608f 56be 271f 543e 4519 803e e46c 1bbe
00000120: e548 86be 1b87 9ebe b22a 733e 2a29 8c3e
00000130: f7f1 d73b c820 dcbd e732 63be 3fd1 513d
00000140: 2c29 33bd 8f96 b73e 8fb1 cebd 2afb 693e
00000150: 624f 173e 7d55 b7be ec96 c8bd 7822 88be
00000160: e0a4 1cbe a158 933b b4eb 9ebe f3f6 83be
00000170: e9d9 9f3c a244 893e cd47 01be d2de 533e
00000180: 47ef a3be 99da a23c 7a97 673e d7e1 cebc
00000190: f319 773e 3ad0 433e 76be a03d ea62 893d
000001a0: bef3 8a3d 3709 52be 0ddc ac3b 985f 22bc
000001b0: 2edc 90be a283 973e 53aa b9bd cbe8 04be
000001c0: 4952 793e f472 923e ee9b 9a3e 8413 f63b
000001d0: 31d7 163e 05b6 11be 4ac3 b1bd 3612 183d
000001e0: cfb3 943c 0554 983e 5885 86be 4082 c83d
000001f0: b479 e43c a6a3 153e 0795 303e bbba 7bbd
00000200: 8c54 1e3e 88c6 223e f296 9e3e d453 75bd
00000210: c172 8d3e f62c 85bd df1c 74be a523 1cbe
00000220: b313 31be 4dc9 693e 2b98 1cbe 3a8d eebd
00000230: fea1 2cbe f499 913e cb99 18be 4472 2fbe
00000240: f1a3 f9bd 67f3 cc3d 7be8 ebbd 0413 9fbe
00000250: 0e91 55be 17d5 3f3d 0fc9 70be a471 47bd
00000260: e5d0 c8bd 731d 70be 3a24 c9bd 7ddd ee3b
00000270: 2992 0f3e dfbb 9e3e 6816 473e 6c8c 183e
00000280: afef f6bc 1fc7 703d 8f27 84be eb18 85be
00000290: 2ba1 373e 7ebe 19be c73e 08bd 2ab5 8f3e
000002a0: 3210 a43e 109c 6abc f28e cc3d 34bc 6dbd
000002b0: 63f3 a83e 24c7 c73b c384 213e a194 34be
000002c0: b9c4 8dbe 3585 94be 3b53 253e b6fe 103e
000002d0: 2e72 df3d 8245 70be 0517 38be e12b a9be
000002e0: 1bee 95bd 4829 52bd cee3 2b3d 0509 ce3d
000002f0: 5a2f 57be 71cb 863e 53e9 aebe 8fb0 63be
00000300: 1eb4 c1bd bf64 e7bd fe8c 453e 5426 69bd
00000310: f5ce 25bd 2af5 0f3e 40ca cb3c 47db 3cbb
00000320: facc 5a3d 5ebf b7bd ee38 aebe 3ae0 103e
00000330: acfb d1be b765 81bd cbb7 30be c5e7 a93b
00000340: 3641 203e 7ace 5e3e c4a7 6a3e 4ee8 813e
00000350: fc02 343e 64c3 c1be a631 123e 0f01 87be
00000360: 9a08 18bd 81c0 24bd ee6a c2be 0de8 013e
00000370: e9f5 203e e933 98be e42f 69bd 5c01 743c
00000380: 5d80 ddbd 7b97 893e d144 6abd 85bd ca3d
00000390: e963 d1bd 2059 1cbe 2764 9f3e 66d6 a73e
000003a0: 5087 253e 5a45 9fbe c218 fb3d f13a c0bd
000003b0: 0188 853e a754 c6bd a037 5d3d 0c6c 7b3c
000003c0: 928b 31be 4f81 afbd 5d1e 573e cf6d 7f3e
000003d0: 31d1 30be 57dc 523e 0589 73be 1b29 f0bd
000003e0: bac4 763d f443 c3bd eb8c e3bd a808 52be
000003f0: 3382 32be fb05 3c3e 2245 c9be a666 c33d

model_19/dense_77/MatMul f4 [24, 48]
0.3121349 0.121731505 0.2132944 0.03357419 0.03148816 0.14152996 -0.11613106 0.23323296
-0.13675557 0.17107122 0.118761815 0.0037960196 0.004918366 -0.3225595 -0.12506297 0.28922018
0.18520771 -0.044877086 -0.1946278 -0.29104355 0.0053117014 0.08884803 0.3470161 0.03930449
-0.13454306 -0.24305947 0.15973224 -0.0035784938 0.33933324 0.08937695 -0.20836748 0.14700042
-0.23461972 0.117784105 -0.058130316 -0.16321668 -0.17091253 -0.109580405 -0.17262521 -0.32817274
-0.09873983 0.17178982 -0.038721286 0.10769688 0.24214284 -0.06079267 0.21495117 0.021236576
0.25909287 0.05162858 0.12471502 0.0057749674 0.11145075 0.25759342 -0.15163226 -0.26287693
-0.13280849 0.25981045 -0.037764087 0.21440169 -0.310346 -0.08761136 0.118520916 0.2647158
0.039473638 -0.1713403 0.112220116 -0.22543614 -0.02500241 0.22255811 -0.051107224 -0.07822236
0.18510295 -0.2505078 0.0036336272 0.312913 -0.22511238 0.056929242 0.3469426 -0.1810068
-0.06295766 0.15370993 0.119005516 0.1525233 -0.04685903 -0.009155918 -0.15907972 0.19083813
0.039173868 -0.11738771 -0.074200116 -0.120302565 -0.19328493 -0.09835531 0.11054385 0.18537487
0.2244811 0.18312337 -0.21214686 0.022315545 0.049751867 -0.066394396 0.247315 0.22136676
-0.104774915 0.1528576 -0.060418684 -0.12120086 0.06669346 0.003937373 0.16719931 -0.17422426
-0.063904166 -0.2561489 0.10846351 -0.084657766 -0.045709915 0.0756558 -0.21155722 0.053801805
-0.015793683 -0.0045659626 -0.00019166984 0.24646045 -0.23273627 0.19433637 -0.043184847 -0.10628053
0.21377708 0.14837313 -0.13144226 0.050776187 -0.04869923 0.12087497 0.16171862 0.109964125
-0.24314779 -0.013395248 0.17083406 0.14252867 -0.049617697 0.0879955 0.2193684 0.06217635
0.16127445 0.0060517904 -0.12558706 0.1481692 -0.07979836 0.081123404 0.30598196 -0.1765495
-0.04667968 0.25441352 -0.059656434 0.10493526 0.15512364 0.03167836 -0.20521991 0.24974301
0.040730774 -0.13775942 -0.016040945 -0.1983803 -0.2801489 -0.132152 0.19196557 -0.03144562
0.2772359 -0.20222667 -0.28125858 -0.19623652 0.09459363 0.1246174 -0.21793638 0.09442488
0.18369779 0.043134652 -0.23320082 -0.060933568 0.016200611 0.33919734 0.11903616 -0.13970026
0.08748725 0.037638262 -0.16816437 -0.13386704 -0.23340058 -0.20408489 0.28190693 -0.046517808
0.2428305 0.17491275 -0.30502737 0.039809305 0.06160423 -0.19831033 -0.23609547 0.02174632
0.18574758 0.26695186 -0.013611525 -0.035523187 -0.019360675 -0.008143541 0.14290938 -0.19462684
-0.25786808 -0.059857596 0.1922142 0.21430579 -0.16732787 0.13976863 -0.28154212 -0.09283165
-0.01751807 0.101478025 -0.014789525 -0.2565228 0.23746 0.26743522 -0.014821092 0.22424771
0.19722487 0.30114356 -0.069804326 0.2887938 -0.062437087 0.07006429 -0.33647618 0.12169728
0.00042458673 -0.1740642 -0.23487219 0.26516604 -0.093853384 0.13573399 0.15758124 0.1821555
0.2340428 0.08091618 0.015135424 0.2102311 -0.18741575 0.20577188 -0.24336232 0.2182197
-0.04535903 -0.1843358 0.14212824 0.2801962 -0.26615316 0.28592497 -0.06533576 -0.1546996
00000000: 25d0 9f3e 5e4e f93d d969 5a3e 1785 093d
00000010: bbf9 003d 3bed 103e 1fd6 edbd 9fd4 6e3e
00000020: a709 0cbe 4b2d 2f3e 6539 f33d a4c6 783b
00000030: 3f2a a13b 8526 a5be 8210 00be ab14 943e
00000040: 17a7 3d3e 09d1 37bd 834c 47be a903 95be
00000050: c80d ae3b f5f5 b53d 18ac b13e bffd 203d
00000060: a8c5 09be 95e4 78be d990 233e 2a85 6abb
00000070: 16bd ad3e 430b b73d 495e 55be 4787 163e
00000080: 2740 70be cb38 f13d 0e1a 6ebd 4622 27be
00000090: b203 2fbe b16b e0bd aac4 30be 4206 a8be
000000a0: 1c38 cabd ace9 2f3e 369a 1ebd 2f90 dc3d
000000b0: 4bf4 773e bc01 79bd 291c 5c3e 54f8 ad3c
000000c0: d2a7 843e 7d78 533d 976a ff3d f03b bd3b
000000d0: 4a40 e43d 49e3 833e 7d45 1bbe ce97 86be
000000e0: f3fe 07be e005 853e 84ae 1abd 1e8c 5b3e
000000f0: ace5 9ebe 966d b3bd 18bb f23d d488 873e
00000100: 1caf 213d d573 2fbe a9d3 e53d bbd8 66be
00000110: dbd1 ccbc 46e6 633e cf55 51bd 0b33 a0bd
00000120: a18b 3d3e 8f42 80be 2622 6e3b 2236 a03e
00000130: dc83 66be a32e 693d 76a2 b13e d959 39be
00000140: f2ef 80bd 2366 1d3e 2ab9 f33d 112f 1c3e
00000150: 41ef 3fbd b402 16bc cbe5 22be 126b 433e
00000160: c774 203d f868 f0bd 3bf6 97bd 3161 f6bd
00000170: 7cec 45be 826e c9bd d064 e23d e9d2 3d3e
00000180: 60de 653e b184 3b3e 073d 59be 17cf b63c
00000190: 9dc8 4b3d c9f9 87bd 2540 7d3e f8ad 623e
000001a0: 3b94 d6bd b486 1c3e 9579 77bd 2838 f8bd
000001b0: 9596 883d 1405 813b 4c36 2b3e d867 32be
000001c0: 30e0 82bd f325 83be 1e22 de3d 0d61 adbd
000001d0: 523a 3bbd 6ef1 9a3d 75a2 58be 485f 5c3d
000001e0: c161 81bc 129e 95bb fbfa 48b9 2160 7c3e
000001f0: 6b52 6ebe 1d00 473e 98e2 30bd 9ba9 d9bd
00000200: 61e8 5a3e 20ef 173e cd98 06be b1fa 4f3d
00000210: d878 47bd 4c8d f73d 9199 253e df34 e13d
00000220: bcfb 78be be77 5bbc 20ef 2e3e 09f3 113e
00000230: ed3b 4bbd fc36 b43d 1ca2 603e a1ac 7e3d
00000240: 2125 253e 194e c63b e599 00be abb9 173e
00000250: 536d a3bd 0724 a63d aba9 9c3e 64c9 34be
00000260: 3133 3fbd 7d42 823e 4e5a 74bd 4ce8 d63d
00000270: bbd8 1e3e 2bc1 013d 2b25 52be a2bc 7f3e
00000280: 50d5 263d ce10 0dbe 4d68 83bc 3524 4bbe
00000290: ad6f 8fbe db52 07be 9f92 443e 1fcd 00bd
000002a0: ddf1 8d3e 8214 4fbe 2001 90be 3af2 48be
000002b0: 4eba c13d 6837 ff3d b72a 5fbe d561 c13d
000002c0: 461b 3c3e f6ad 303d 32cc 6ebe 7a95 79bd
000002d0: 25b7 843c 46ab ad3e 3bc9 f33d 960d 0fbe
000002e0: 842c b33d 942a 1a3d 4833 2cbe 7114 09be
000002f0: 9000 6fbe a1fb 50be 1b56 903e 7589 3ebd
00000300: 8fa8 783e 541c 333e 8c2c 9cbe 150f 233d
00000310: b854 7c3d dd11 4bbe 03c3 71be 5725 b23c
00000320: 9d34 3e3e eaad 883e e002 5fbc c380 11bd
00000330: 479a 9ebc 7d6c 05bc d656 123e 424c 47be
00000340: 4907 84be 3d2d 75bd cdd3 443e fa72 5b3e
00000350: ff57 2bbe 821f 0f3e 4a26 90be 851e bebd
00000360: 0e82 8fbc b6d3 cf3d c44f 72bc f556 83be
00000370: b728 733e 45ed 883e 2ad4 72bc 31a1 653e
00000380: 51f5 493e 7d2f 9a3e 92f5 8ebd c8dc 933e
00000390: 08be 7fbd de7d 8f3d 9b46 acbe 6c3c f93d
000003a0: 119b de39 e33d 32be 5682 70be d8c3 873e
000003b0: 3436 c0bd dafd 0a3e fa5c 213e f986 3a3e
000003c0: eaa8 6f3e 62b7 a53d 92fa 773c d246 573e
000003d0: eae9 3fbe ddb5 523e f933 79be fc74 5f3e
000003e0: 64ca 39bd 86c2 3cbe 118a 113e e075 8f3e
000003f0: 3a45 88be c264 923e c1ce 85bd 9269 1ebe

model_19/dense_78/MatMul f4 [12, 24]
-0.026463494 -0.044049963 0.07241319 -0.25370416 0.13857281 0.031997096 0.25658473 0.113011226
0.13713408 0.08589959 -0.1916274 -0.17651269 -0.37031558 -0.14542605 0.0013747128 -0.43185875
-0.1533763 -0.38898322 0.01980356 0.34515217 -0.11343646 -0.0872532 -0.22358991 -0.011974627
0.28123105 -0.29674768 0.23993343 0.3824971 -0.04557655 0.014860925 0.078235075 0.24555202
-0.2002617 0.50365275 0.0787034 -0.1462162 0.4559208 -0.2872049 0.29644525 -0.2689893
-0.057245716 0.20360105 -0.43945605 -0.3963135 0.31125447 0.06771129 0.060217496 0.08338985
0.42658612 -0.3526231 0.35814694 0.045584135 0.3206442 -0.35205063 0.26185033 -0.16740318
0.21436791 -0.11883283 -0.092819795 0.025782552 0.20559402 0.40551394 0.3860362 0.04056002
0.27386093 -0.005972715 -0.23905776 0.016246777 0.23317145 0.38972312 0.44342166 0.16255705
0.3147331 -0.13552892 -0.13911535 0.13118893 -0.19941759 0.3476965 0.32349592 -0.2843864
-0.20487398 0.2595845 0.2813937 -0.23827818 0.07499439 0.20187017 -0.16969328 0.2704807
0.48575014 0.29000828 -0.199241 -0.025727455 -0.29494885 0.048294734 0.020362783 -0.062207934
-0.3264832 0.46217373 -0.3047885 -0.25033104 0.10583285 -0.016186072 -0.27648804 0.34832278
0.038644392 -0.28407845 -0.081230424 -0.14908741 0.12332066 0.004438817 0.029632196 -0.19454907
-0.1937037 -0.33359346 -0.05561704 0.15008102 0.23168863 -0.23311916 0.19648202 -0.25932574
0.20756596 -0.33864933 -0.15101156 -0.38486442 0.39034167 -0.3394943 -0.032493327 0.113361
-0.3663282 0.24428932 -0.35215983 0.34266722 0.20761667 0.2215733 0.37640753 0.0511582
-0.15343647 -0.12520057 -0.32314372 0.19030002 0.052389584 -0.14943227 0.19643342 -0.23890558
0.28825372 0.21662441 -0.10312974 0.3331053 -0.43627614 -0.17539647 0.050623514 -0.3012288
0.02092307 0.44450954 0.2833565 0.04001123 0.20037699 0.4336004 -0.108545266 -0.1638627
0.48363614 -0.16969433 0.31349382 0.056721047 0.068002865 0.36429343 0.23119378 0.15059319
0.1988967 0.034630693 -0.33085746 -0.20511468 0.2756093 0.11104671 -0.20896153 -0.04093528
0.15339552 -0.28427 0.29810974 -0.2992388 0.105681114 0.27472177 -0.1973391 -0.3159173
-0.39468962 -0.17790425 0.41521776 0.07468872 -0.26752493 0.14785926 0.1241065 -0.33743834
-0.11615366 -0.23634757 0.4378197 -0.21784441 0.46260872 -0.26318076 0.20177798 -0.07682694
0.17230302 -0.34998468 -0.37378123 0.11557263 0.07705879 -0.38889244 0.4168766 -0.23502682
-0.28590706 -0.42071664 -0.11515131 0.19343503 -0.032419696 -0.18181783 0.09240503 0.35563675
-0.1608297 0.27218512 0.1778146 -0.111024976 0.28229648 -0.102372296 0.4343014 -0.31776923
-0.16306834 0.16486901 0.10996126 -0.36439547 -0.18591855 -0.096180916 0.17382331 0.31118467
-0.45470318 -0.26874775 0.06725521 0.22529082 -0.3721218 0.07076283 0.2751275 -0.19979182
0.105288655 0.22225365 0.23124336 -0.09612646 0.33018753 -0.072867684 -0.049108267 -0.34146097
-0.04516766 -0.058394555 0.11116225 -0.3824117 -0.23224576 0.028438391 -0.042933863 0.4266349
00000000: f8c9 d8bc bc6d 34bd 5e4d 943d 83e5 81be
00000010: 08e6 0d3e 630f 033d 135f 833e 6e72 e73d
00000020: e06c 0c3e 20ec af3d f939 44be bebf 34be
00000030: 019a bdbe 91ea 14be b52f b43a 971c ddbe
00000040: ad0e 1dbe cf28 c7be 133b a23c c9b7 b03e
00000050: 6051 e8bd ceb1 b2bd c1f4 64be 3a31 44bc
00000060: 84fd 8f3e 50ef 97be 1cb1 753e a9d6 c33e
00000070: 7aae 3abd 3d7b 733c b639 a03d fd71 7b3e
00000080: 6711 4dbe 63ef 003f 402f a13d b3b9 15be
00000090: 736e e93e 850c 93be acc7 973e f7b8 89be
000000a0: 7c7a 6abd cb7c 503e 6200 e1be 9ae9 cabe
000000b0: bf5c 9f3e 38ac 8a3d 9fa6 763d 4cc8 aa3d
000000c0: 7f69 da3e 048b b4be 095f b73e 6eb6 3a3d
000000d0: 7a2b a43e fb3f b4be 3f11 863e bd6b 2bbe
000000e0: 4383 5b3e a05e f3bd 4e18 bebd ee35 d33c
000000f0: 3d87 523e 869f cf3e 89a6 c53e 4322 263d
00000100: 8037 8c3e c4b6 c3bb 8fcb 74be f617 853c
00000110: 7fc4 6e3e ca89 c73e 2a08 e33e 5b75 263e
00000120: b224 a13e 18c8 0abe 4174 0ebe 6456 063e
00000130: 2034 4cbe 4705 b23e 42a1 a53e 189b 91be
00000140: 7cca 51be 42e8 843e d612 903e 32ff 73be
00000150: a996 993d 0eb7 4e3e 13c4 2dbe 727c 8a3e
00000160: 3eb4 f83e f77b 943e d505 4cbe 62c2 d2bc
00000170: 8903 97be b3d0 453d dacf a63c bfcd 7ebd
00000180: ce28 a7be 09a2 ec3e 3d0d 9cbe 642b 80be
00000190: e5be d83d a798 84bc d78f 8dbe 5d57 b23e
000001a0: 9549 1e3d bb72 91be 235c a6bd 5faa 18be
000001b0: 8b8f fc3d 7f73 913b 38bf f23c df37 47be
000001c0: 435a 46be c3cc aabe b1ce 63bd d7ae 193e
000001d0: c93f 6d3e cab6 6ebe 9532 493e 58c6 84be
000001e0: 2c8c 543e 7263 adbe c6a2 1abe f30c c5be
000001f0: ddda c73e 32d2 adbe b917 05bd d029 e83d
00000200: 5f8f bbbe fb26 7a3e 4b4e b4be 1472 af3e
00000210: 7799 543e 1ce4 623e 7db8 c03e 438b 513d
00000220: 731e 1dbe 9434 00be 1873 a5be 02de 423e
00000230: 7696 563d c604 19be d825 493e aaa3 74be
00000240: fe95 933e cad2 5d3e af35 d3bd c78c aa3e
00000250: 965f dfbe 229b 33be 9a5a 4f3d a93a 9abe
00000260: dc66 ab3c c196 e33e 1a14 913e d1e2 233d
00000270: a02f 4d3e df00 de3e fb4c debd a0cb 27be
00000280: 289f f73e 5ac4 2dbe 4382 a03e 5454 683d
00000290: 1645 8b3d ab84 ba3e 10be 6c3e 1a35 1a3e
000002a0: 94ab 4b3e ead8 0d3d 2666 a9be 9509 52be
000002b0: aa1c 8d3e 756c e33d 03fa 55be c1ab 27bd
000002c0: b713 1d3e d68b 91be d7a1 983e d435 99be
000002d0: 576f d83d 55a8 8c3e 4313 4abe eabf a1be
000002e0: c214 cabe 882c 36be 6c97 d43e 66f6 983d
000002f0: 07f9 88be 6b68 173e 8c2b fe3d b8c4 acbe
00000300: f8e1 edbd 1905 72be e729 e03e 9b12 5fbe
00000310: 0ddb ec3e a1bf 86be e39e 4e3e 7157 9dbd
00000320: 3470 303e 3131 b3be 4160 bfbe 58b1 ec3d
00000330: 00d1 9d3d e91c c7be da70 d53e dfaa 70be
00000340: 6962 92be 2c68 d7be 73d4 ebbd d513 463e
00000350: 84ca 04bd 742e 3abe d93e bd3d 0516 b63e
00000360: 8ab0 24be d95b 8b3e 0815 363e 1061 e3bd
00000370: 2a89 903e 91a8 d1bd c15c de3e a6b2 a2be
00000380: 63fb 26be 6cd3 283e 5e33 e13d 0b92 babe
00000390: 6f61 3ebe 80fa c4bd bdfe 313e 9953 9f3e
000003a0: dbce e8be 4e99 89be 19bd 893d a3b2 663e
000003b0: c086 bebe 1aec 903d 83dd 8c3e 3a96 4cbe
000003c0: 94a1 d73d 7696 633e 0fcb 6c3e f3dd c4bd
000003d0: 570e a93e a73b 95bd c025 49bd f9d3 aebe
000003e0: b901 39bd 212f 6fbd 09a9 e33d 77cb c3be
000003f0: d5d1 6dbe a1f7 e83c 6bdb 2fbd e46f da3e

model_19/dense_79/MatMul f4 [1, 12]
-0.6315092 0.58039856 0.21285857 0.6649355 -0.45021218 -0.02854321 0.43678558 -0.51941603
-0.48690706 -0.1977685 0.484493 -0.40732098
00000000: 96aa 21bf 0095 143f 99f7 593e 3739 2a3f
00000010: 3682 e6be 73d3 e9bc 5ca2 df3e 73f8 04bf
00000020: e24b f9be d383 4abe 770f f83e 608c d0be
