outlier/outliers.tflite (tflite, 10364 bytes, 7 tensors)

unknown_0 f4 [48]
-0.032541066 0.010231749 0.052974325 0.0025749893 -0.021293338 0.009999291 0.041211523 0.0077712256
-0.07591038 0.008954594 0.0066541494 0.0013840771 -0.055547424 0.076215185 0.059182614 0.0827183
-0.057853322 -0.0056025046 0.026919998 -0.006410383 0.059776966 -0.0013586085 0.0012595629 0.059860222
0.013865026 0.025399191 0.060337383 0.035104465 0.1089359 0.045737047 -0.009965884 -0.00231475
-0.010243966 0.06918165 0.009463899 0.08899592 0.036658883 0.13721263 0.0029795968 -0.03301714
0.036788564 -0.05378848 0.017336817 0.017833011 0.11317495 0.020472337 0.02893184 -0.0138485385
00000000: c849 05bd 11a3 273c 9bfb 583d 27c1 283b
00000010: 5e6f aebc 11d4 233c 6acd 283d c4a5 fe3b
00000020: e776 9bbd 4ab6 123c 0d0b da3b ec69 b53a
00000030: b285 63bd b516 9c3d 7869 723d 3668 a93d
00000040: 9bf7 6cbd 3795 b7bb 5487 dc3c 310e d2bb
00000050: b1d8 743d 5613 b2ba eb17 a53a fe2f 753d
00000060: 222a 633c f711 d03c 5524 773d b3c9 0f3d
00000070: c919 df3d c556 3b3d f247 23bc 10b3 17bb
00000080: 4fd6 27bc 1caf 8d3d 780e 1b3c 7e43 b63d
00000090: a027 163d 7881 0c3e 5745 433b fb3c 07bd
000000a0: 9baf 163d 4f51 5cbd f105 8e3c 8916 923c
000000b0: 45c8 e73d 9ab5 a73c 7702 ed3c fbe4 62bc

unknown_2 f4 [24]
0.09465685 0.059165474 0.017748935 0.017572792 0.10259212 -0.052625604 -0.00031767876 -0.00023099748
-0.039967183 0.0072344434 0.024206528 0.014978454 -0.032137576 0.03526651 0.010253733 -0.022839395
-0.0034763014 0.041302692 -0.013996477 -0.016705407 -0.028132796 -0.030321393 0.014907468 0.09231207
00000000: 73db c13d 7f57 723d 3766 913c d1f4 8f3c
00000010: d11b d23d f28d 57bd 1f8e a6b9 ea37 72b9
00000020: a1b4 23bd e90e ed3b c54c c63c 3168 753c
00000030: b1a2 03bd 9e73 103d 46ff 273c af19 bbbc
00000040: a9d2 63bb 032d 293d 7b51 65bc c7d9 88bc
00000050: c076 e6bc 9264 f8bc 743e 743c 1c0e bd3d

unknown_4 f4 [12]
0.011330824 0.008521044 0.027082982 0.026294585 -0.0018619404 0.06058365 -0.07016231 -0.010969232
-0.0071092346 -0.011095676 0.10879239 0.026006263
00000000: eca4 393c d99b 0b3c 21dd dd3c be67 d73c
00000010: 5a0c f4ba 9026 783d 42b1 8fbd 4bb8 33bc
00000020: 95f4 e8bb a3ca 35bc 8bce de3d 160b d53c

functional_19/dense_36/MatMul;StatefulPartitionedCall/functional_19/dense_36/MatMul f4 [48, 10]
0.15644382 0.050725102 0.15223926 -0.16256979 0.0311152 0.03909036 0.047968075 0.30111557
-0.13168131 -0.030340936 -0.0031864543 -0.09113695 -0.11864167 -0.16863719 -0.019415783 -0.20523477
0.11780506 0.22830011 -0.3243618 -0.010225107 -0.23476309 -0.15313502 -0.10195401 -0.12928972
-0.43078652 0.36410877 0.041562036 0.21546213 -0.08382305 -0.26457217 0.2551721 0.15019456
0.13780075 0.15702116 0.24431509 0.41715962 0.22049515 -0.017907046 -0.17352384 -0.24404863
-0.112658925 -0.22251604 0.11868071 -0.04536177 0.00235542 0.041499674 0.17183127 -0.2665783
-0.12063986 0.3053925 0.27589127 -0.3530901 0.10246745 0.0023269004 0.08915338 -0.27947053
-0.15169139 0.15612356 0.19352807 -0.11145366 -0.25771016 -0.20377074 -0.18626615 0.11671515
-0.32013422 -0.17844406 0.3329273 -0.29741398 0.13743491 -0.048984688 -0.14125203 0.24550852
-0.21582909 -0.07576992 0.24709138 0.23313633 0.0107271485 0.32929197 0.15952724 0.25781292
-0.18537733 0.11376845 -0.0050952546 -0.0022706254 0.21003473 0.08606722 0.2283948 -0.11036171
0.013824721 -0.21145718 0.13626556 0.28437042 0.23714852 -0.18683438 0.19955868 -0.23596433
0.2192091 -0.256488 -0.2814715 0.11128069 -0.13520087 0.13972113 0.03856789 -0.32807884
-0.04414083 0.13781199 -0.15365563 0.18763453 -0.16666983 -0.1910308 -0.024718447 -0.36883062
-0.36893627 -0.11350089 0.24077898 0.22630729 -0.25124893 0.14226004 -0.21022293 -0.22680368
-0.22730733 -0.12207377 0.096211836 0.30305004 0.30001473 -0.26560965 -0.2596651 0.089716606
0.12882248 0.26448056 0.23455146 0.23875786 0.3565331 0.08841315 -0.04542598 -0.05416319
-0.16230902 0.20046078 -0.30733046 -0.08262453 0.081150666 0.36459488 -0.11213208 0.03196981
-0.062183343 0.049169093 0.26969373 -0.0071643097 0.32213095 -0.11015628 -0.15095268 0.10641293
0.06691785 0.035517257 0.18323447 -0.22358182 -0.3442541 -0.28504595 -0.07447623 -0.1260698
-0.14174928 0.20044951 0.08822207 0.3030127 -0.03386273 -0.1493665 -0.015485546 -0.056935962
-0.18232128 -0.13926317 0.1706206 -0.09877226 0.29370505 0.14702232 0.26383626 -0.21337293
0.14385754 -0.13759626 -0.076776065 -0.25088868 -0.20045069 0.02757812 -0.21341702 0.1551421
0.17057131 -0.33720475 -0.2833608 0.072848745 -0.26046118 -0.23110384 0.014010258 0.010946067
-0.013844941 -0.37144083 -0.08163927 0.13575356 -0.033814833 0.30925888 0.16746755 -0.040563803
-0.32893553 0.08954655 -0.106472984 0.20457768 0.31444305 0.106564455 -0.046389103 -0.15220097
0.081025064 0.30833986 0.12066757 -0.15475455 -0.14827201 0.17375252 0.3319063 0.01604425
-0.2966404 0.076578595 -0.06961753 -0.005672761 -0.12513356 -0.1289519 0.089289665 0.23109138
0.0012900667 0.39591038 0.1766572 0.12909453 -0.19614406 0.016639296 0.20042993 -0.280775
0.09993081 -0.35859057 0.062299654 0.2767821 -0.18130992 -0.03385011 -0.06298192 0.09226057
-0.23747665 -0.11210762 -0.15146881 0.056930263 -0.05692851 0.32106647 0.033210922 0.1957888
0.18231577 -0.28625983 0.12201473 -0.056022108 0.00041102673 -0.06588252 -0.35954115 0.31844512
00000000: cf32 203e 20c5 4f3d 9ce4 1b3e b278 26be
00000010: 4ee5 fe3c 371d 203d 2c7a 443d d22b 9a3e
00000020: 77d7 06be 8e8d f8bc d5d3 50bb 02a6 babd
00000030: 67fa f2bd 3aaf 2cbe d90d 9fbc 1029 52be
00000040: c843 f13d 81c7 693e c012 a6be 3587 27bc
00000050: bc65 70be 6dcf 1cbe 44cd d0bd 8664 04be
00000060: 0d90 dcbe 776c ba3e f43c 2a3d 1ba2 5c3e
00000070: 6bab abbd 0176 87be eba5 823e 9acc 193e
00000080: a41b 0d3e 28ca 203e bc2d 7a3e f295 d53e
00000090: 7bc9 613e ccb1 92bc 3cb0 31be e2e7 79be
000000a0: b9b9 e6bd 3fdb 63be df0e f33d 43cd 39bd
000000b0: 645d 1a3b 90fb 293d 89f4 2f3e f37c 88be
000000c0: 0812 f7bd 685c 9c3e 9f41 8d3e 3ac8 b4be
000000d0: 74da d13d e97e 183b 0c96 b63d c316 8fbe
000000e0: fd54 1bbe dbde 1f3e 392c 463e d141 e4bd
000000f0: 96f2 83be 47a9 50be 8ebc 3ebe 5a08 ef3d
00000100: a2e8 a3be 0aba 36be 7275 aa3e a546 98be
00000110: bdbb 0c3e 2ba4 48bd 5fa4 10be 9666 7b3e
00000120: 4d02 5dbe 432d 9bbd 8605 7d3e 4abb 6e3e
00000130: ecc0 2f3c f598 a83e 1c5b 233e 0e00 843e
00000140: 8ed3 3dbe 6fff e83d 18f6 a6bb c6ce 14bb
00000150: 5813 573e 0344 b03d 54e0 693e 5205 e2bd
00000160: 1581 623c 3b88 58be 3389 0b3e 0099 913e
00000170: 10d7 723e 8351 3fbe 1c59 4c3e a2a0 71be
00000180: 5a78 603e 6552 83be 081d 90be 21e7 e33d
00000190: 1972 0abe 0e13 0f3e 5df9 1d3d f3f9 a7be
000001a0: 04cd 34bd 961e 0d3e e757 1dbe 4423 403e
000001b0: 7fab 2abe 949d 43be 577e cabc 5ed7 bcbe
000001c0: 37e5 bcbe 2873 e8bd c48e 763e 19bd 673e
000001d0: b3a3 80be 9eac 113e ae44 57be 393f 68be
000001e0: 41c3 68be d001 fabd b60a c53d 6029 9b3e
000001f0: 889b 993e fdfd 87be d3f2 84be 57bd b73d
00000200: 0aea 033e ff69 873e 422e 703e f17c 743e
00000210: 828b b63e f411 b53d 9810 3abd 39da 5dbd
00000220: 5634 26be 9745 4d3e 6b5a 9dbe 0d37 a9bd
00000230: 5232 a63d 2eac ba3e 81a5 e5bd c7f2 023d
00000240: f6b3 7ebd 8865 493d 4c15 8a3e 96c2 eabb
00000250: 59ee a43e 9e99 e1bd 5793 1abe 06ef d93d
00000260: 3a0c 893d 8b7a 113d d1a1 3b3e a2f2 64be
00000270: 1342 b0be 8bf1 91be fe86 98bd 7118 01be
00000280: b926 11be a342 4d3e c6ad b43d 7b24 9b3e
00000290: a5b3 0abd 88f3 18be 16b7 7dbc af35 69bd
000002a0: 6eb2 3abe 019b 0ebe 2bb7 2e3e 1c49 cabd
000002b0: 8260 963e 058d 163e 8c15 873e 6f7e 5abe
000002c0: 644f 133e 09e6 0cbe c53c 9dbd 7b74 80be
000002d0: f242 4dbe 82eb e13c fe89 5abe 92dd 1e3e
000002e0: 3faa 2e3e 1aa6 acbe ab14 91be b931 953d
000002f0: 2b5b 85be 7ca6 6cbe 488b 653c 2257 333c
00000300: e4d5 62bc 7e2d bebe 7d32 a7bd fb02 0b3e
00000310: 6c81 0abd 2e57 9e3e 9d7c 2b3e 3b26 26bd
00000320: 3d6a a8be 2e64 b73d 820e dabd d07c 513e
00000330: aefe a03e 773e da3d 8002 3ebd 92da 1bbe
00000340: 78f0 a53d b9de 9d3e 8f20 f73d fa77 1ebe
00000350: 9ed4 17be 2eec 313e 9fef a93e 3b6f 833c
00000360: 40e1 97be 3dd5 9c3d a393 8ebd 91e2 b9bb
00000370: 0323 00be f80b 04be 80dd b63d 38a3 6c3e
00000380: 7517 a93a c4b4 ca3e a0e5 343e 5b31 043e
00000390: fdd9 48be 224f 883c 813d 4d3e bec1 8fbe
000003a0: 86a8 cc3d 2f99 b7be ec2d 7f3d 62b6 8d3e
000003b0: 4fa9 39be 6aa6 0abd aafc 80bd 1cf3 bc3d
000003c0: 142d 73be ae98 e5bd a41a 1bbe b52f 693d
000003d0: df2d 69bd d362 a43e 2d08 083d dc7c 483e
000003e0: fcb0 3a3e a690 92be dce2 f93d 7077 65bd
000003f0: 137f d739 6aed 86bd c715 b8be 3d0b a33e

functional_19/dense_37/MatMul;StatefulPartitionedCall/functional_19/dense_37/MatMul f4 [24, 48]
0.12396209 -0.13869758 0.08500408 -0.26769176 0.20036356 -0.2978874 0.0809977 -0.118648745
-0.07194885 -0.09017301 0.019406062 -0.15484768 -0.2878796 0.1384176 -0.18738969 0.34415528
0.23596808 0.281764 -0.19839963 -0.26274088 -0.057371892 -0.22988462 -0.22552624 0.0386491
-0.15986973 -0.00022782928 0.16226825 0.06778033 -0.03245924 -0.05932064 0.14304908 0.19761677
0.0035939983 0.19424672 -0.10580606 0.24709728 -0.25738892 0.2927416 0.098258786 0.07788971
-0.18693492 0.17589661 -0.05499446 -0.1371675 0.053061154 0.0052969246 -0.09269963 -0.26766908
-0.21754345 -0.12029861 0.08936433 0.034794636 0.091131635 0.13493183 -0.21938321 0.29406023
0.099924214 -0.20003545 -0.087532066 0.0004427958 -0.03889518 0.19138482 0.06856022 0.31268457
-0.24136467 0.18479848 0.21889396 -0.23906279 0.25674397 0.19141908 0.21173431 -0.05041125
0.28491372 -0.09160451 -0.24247351 -0.0046476005 -0.013472011 0.06337181 0.0844441 -0.20159706
-0.09608619 0.10203675 -0.1225145 0.025179718 -0.0131721115 0.011734227 -0.13716938 0.0065681543
-0.23409837 0.16714257 -0.21633045 0.14239918 0.29838836 -0.08582929 -0.28466037 0.08757906
0.03748618 0.05855822 -0.048067894 0.38614967 -0.0073316125 -0.28245068 -0.21473077 0.05039166
-0.15064958 -0.3076878 0.101340026 -0.19359852 0.17253086 -0.02852036 0.2437259 0.020610852
0.21488407 0.11498076 0.081303835 -0.19215642 -0.043407083 0.2453451 0.0097076865 0.24694373
0.05364944 0.2781404 0.04977425 0.20443925 0.04262933 0.09212747 0.20755038 0.31686708
0.07794429 0.090129085 0.056500416 0.0011218436 -0.009919228 -0.1604517 -0.093428545 -0.19113237
0.13763449 0.09375001 0.10856733 -0.26567566 -0.10204248 -0.1869135 0.27648124 0.09208577
0.057236817 -0.040333077 0.27085415 -0.036642876 -0.029314432 0.19635989 -0.24351795 -0.17893744
-0.20464574 0.04401698 -0.24205275 -0.13120155 -0.098458566 -0.15771602 -0.01326246 0.08011055
0.25698027 0.23001513 -0.32054308 0.13920888 -0.023005998 -0.27032775 0.13121872 -0.238394
-0.06375364 0.15685458 -0.10081646 -0.13514851 0.28726977 0.15588942 -0.07026148 0.055365104
-0.15965593 -0.23472105 0.28328806 -0.18913358 0.073102035 -0.249949 0.11936458 -0.14828001
-0.17798822 0.23761359 0.25674185 0.05796567 0.14709651 0.16895096 0.084660634 -0.16890377
0.22206064 0.114840016 0.28294545 -0.15072004 -0.2071469 -0.042636383 -0.18590963 -0.10724846
-0.096805595 0.1660386 0.026074985 -0.25376773 0.15029599 0.1823541 0.21887116 0.23581302
0.13443142 -0.19953917 0.10744932 -0.032319948 0.25914 0.21730725 0.20794669 -0.21546674
-0.260554 0.080853894 0.24150951 -0.06880687 0.25881714 0.22537328 0.08728138 0.17625324
-0.21278287 -0.25605327 0.18949088 0.21545677 0.33655787 0.28299603 0.123880856 -0.18312214
0.09207645 -0.15225394 -0.23503654 0.020564383 0.18902014 -0.20764029 -0.2506092 -0.24903706
-0.31232738 -0.068133354 -0.057661198 0.2502179 0.04680836 -0.296936 -0.2646404 0.025248542
-0.18157317 -0.007996375 -0.004633551 -0.060282543 -0.17575872 -0.2076804 -0.04282029 -0.18970807
00000000: d6df fd3d bd06 0ebe 9e16 ae3d e50e 89be
00000010: 1b2c 4d3e b384 98be 1fe2 a53d 1dfe f2bd
00000020: eb59 93bd a1ac b8bd 76f9 9e3c 6490 1ebe
00000030: f464 93be 58bd 0d3e 15e3 3fbe 1f35 b03e
00000040: 9ea1 713e 5f43 903e 4629 4bbe f985 86be
00000050: cafe 6abd e066 6bbe 5af0 66be 854e 1e3d
00000060: e4b4 23be 75e5 6eb9 a629 263e 6ad0 8a3d
00000070: fbf3 04bd 33fa 72bd 757b 123e 0d5c 4a3e
00000080: 4989 6b3b 9de8 463e d9b0 d8bd 1207 7d3e
00000090: 7bc8 83be 3ae2 953e e73b c93d a484 9f3d
000000a0: de6b 3fbe 3e1e 343e df41 61bd a375 0cbe
000000b0: a756 593d d391 ad3b 4ed9 bdbd ec0b 89be
000000c0: b6c3 5ebe 1e5f f6bd a504 b73d d284 0e3d
000000d0: 39a3 ba3d 922b 0a3e fea5 60be 108f 963e
000000e0: 11a5 cc3d 18d6 4cbe 0344 b3bd 0c27 e839
000000f0: 8d50 1fbd 62fa 433e 4d69 8c3d 3118 a03e
00000100: 4d28 77be d03b 3d3e bd25 603e e0cc 74be
00000110: f273 833e 5d03 443e e1d0 583e 077c 4ebd
00000120: 36e0 913e 259b bbbd fa4a 78be e64a 98bb
00000130: b6b9 5cbc 14c9 813d 07f1 ac3d 766f 4ebe
00000140: d6c8 c4bd a5f8 d03d e2e8 fabd b245 ce3c
00000150: d7cf 57bc ea40 403c 2176 0cbe ac39 d73b
00000160: 7cb7 6fbe 6c27 2b3e bb85 5dbe 17d1 113e
00000170: 5cc6 983e 44c7 afbd 01bf 91be a65c b33d
00000180: 1c8b 193d beda 6f3d d7e2 44bd 69b5 c53e
00000190: 063e f0bb 609d 90be 62e2 5bbe 7c67 4e3d
000001a0: e243 1abe 4189 9dbe 5c8b cf3d b13e 46be
000001b0: eeab 303e 88a3 e9bc 4893 793e 17d8 a83c
000001c0: 920a 5c3e 087b eb3d a082 a63d a7c4 44be
000001d0: a0cb 31bd bf3b 7b3e fd0c 1f3c d1de 7c3e
000001e0: 84bf 5b3d 6b68 8e3e 15e0 4b3d 8658 513e
000001f0: 189c 2e3d 54ad bc3d 1688 543e 673c a23e
00000200: 42a1 9f3d 9995 b83d fb6c 673d d30a 933a
00000210: 4284 22bc 734d 24be 7757 bfbd 34b8 43be
00000220: 0ef0 0c3e 0100 c03d 8c58 de3d a406 88be
00000230: a6fb d0bd 4166 3fbe f38e 8d3e 7797 bc3d
00000240: 2771 6a3d 4c34 25bd 65ad 8a3e d716 16bd
00000250: d224 f0bc 9112 493e c55c 79be 603b 37be
00000260: a78e 51be 264b 343d addc 77be b359 06be
00000270: a5a4 c9bd 4f80 21be ca4a 59bc 0011 a43d
00000280: eb92 833e 1689 6b3e 391e a4be c68c 0e3e
00000290: 1377 bcbc 6668 8abe 335e 063e 8f1d 74be
000002a0: 4591 82bd 7d9e 203e dc78 cebd 5f64 0abe
000002b0: 0615 933e 7aa1 1f3e 40e5 8fbd 85c6 623d
000002c0: d87c 23be b75a 70be 220b 913e 3cac 41be
000002d0: 85b6 953d a1f2 7fbe 6b75 f43d b7d6 17be
000002e0: 8b42 36be fa50 733e ab73 833e 696d 6d3d
000002f0: 78a0 163e 7b01 2d3e 8e62 ad3d 1cf5 2cbe
00000300: dd63 633e 3e31 eb3d 3ade 903e 5b56 1abe
00000310: 511e 54be 7da3 2ebd 185f 3ebe 15a5 dbbd
00000320: 0342 c6bd 0606 2a3e 359b d53c d8ed 81be
00000330: 31e7 193e 08bb 3a3e c31f 603e f878 713e
00000340: 64a8 093e ff53 4cbe 640e dc3d ec61 04bd
00000350: 00ae 843e cb85 5e3e faef 543e 50a3 5cbe
00000360: 5567 85be ba96 a53d 454e 773e 9eea 8cbd
00000370: ae83 843e 41c8 663e 95c0 b23d bb7b 343e
00000380: c1e3 59be 6a19 83be e609 423e b3a0 5c3e
00000390: 5051 ac3e dbe4 903e 3fb5 fd3d 5f84 3bbe
000003a0: 9492 bc3d 75e8 1bbe 6bad 70be a376 a83c
000003b0: 7f8e 413e a89f 54be d94f 80be 9203 7fbe
000003c0: 60e9 9fbe 8089 8bbd 262e 6cbd 901c 803e
000003d0: 1fba 3f3d ff07 98be f27e 87be 08d6 ce3c
000003e0: 51ee 39be 3a03 03bc 0bd5 97bb d4ea 76bd
000003f0: 18fa 33be 2caa 54be 5464 2fbd d542 42be

functional_19/dense_38/MatMul;StatefulPartitionedCall/functional_19/dense_38/MatMul f4 [12, 24]
-0.23390505 0.4054227 0.23146577 0.3178481 0.030868059 0.31476754 -0.1761761 0.15509085
-0.25926822 0.31544706 -0.4191828 -0.20166136 -0.14229505 -0.2866766 -0.06209167 0.039400406
-0.0053285686 0.17205115 -0.035310376 0.083763815 -0.0681311 -0.15400627 0.20445651 -0.1800831
0.0015071819 0.23480271 -0.09119447 -0.07249851 0.14394301 0.2500183 -0.267911 -0.18340124
-0.29490975 -0.10819447 -0.21198213 0.24579655 0.12903234 -0.015832318 0.045524992 -0.016102254
-0.4355863 0.25517213 -0.4262765 0.27113587 -0.3655751 0.19568561 0.10366785 -0.29487377
0.23000677 -0.06036983 -0.20296103 -0.099348076 0.1524698 0.0072594425 -0.39378834 0.087367795
0.04726679 0.2555668 0.28718516 -0.024560452 -0.20650397 -0.14156869 -0.27890453 -0.4692338
-0.14008375 0.4592635 0.1651407 -0.09581021 -0.3823362 0.30604634 0.21001737 0.31221518
-0.056063358 -0.19136332 0.43269137 -0.32064283 -0.3368472 -0.14535761 -0.08929512 -0.22203581
0.09650998 0.2780893 0.4025351 0.14000458 -0.12344008 -0.42538485 -0.13688116 -0.28130293
0.2457939 -0.23222812 0.29866382 -0.014805881 -0.33824426 0.09921932 0.09273323 0.19584414
0.14396791 -0.39258635 0.39170694 -0.18662706 -0.2669208 -0.052251782 0.06392788 0.046816744
0.24734814 0.33729365 0.33850172 0.033391837 0.022001885 0.0038348052 0.22026202 -0.010734179
0.40089372 0.20190994 -0.33560866 0.039665986 -0.24740265 -0.19367664 0.20118307 -0.0695001
0.5380878 -0.10619779 -0.18364374 -0.28737485 0.24447662 -0.111614026 -0.32903785 -0.27841735
0.005117835 -0.28607658 0.4190884 -0.1282392 0.29916686 0.091376 -0.09054089 0.26311356
0.054300334 -0.11793154 -0.34955657 -0.09898206 0.1916988 -0.23363821 -0.38484097 -0.24718492
-0.081964694 -0.15174688 -0.3013109 0.3834382 -0.15012592 0.16282803 0.10592567 0.28673798
0.24801455 -0.35222244 0.20330662 -0.08644223 -0.05253273 -0.40403292 -0.38164088 0.2204601
0.20646295 -0.23391028 -0.05995379 -0.19822443 0.15145573 0.27383965 -0.31464854 -0.17257926
-0.35818663 0.0044283415 0.12433629 -0.33013228 -0.12348031 0.16978934 0.43848592 0.3167016
0.30849728 0.44143987 0.38881892 -0.015854405 0.37685174 0.22868341 -0.09136878 0.03978929
0.21935968 0.1214881 0.00455212 0.068053834 0.008872116 -0.092243694 0.31405404 -0.19779849
0.13189182 -0.17695953 0.24353476 0.06446589 -0.15030567 -0.061215322 -0.04778493 0.46771434
-0.27892196 0.3395369 0.1672275 0.41155082 -0.14732586 -0.20314059 -0.27892223 -0.009090245
-0.24165516 -0.017686075 0.1644985 0.1975902 -0.15654008 0.3759017 0.35835508 -0.4766318
0.10950102 -0.31933895 0.00042165094 -0.31362206 -0.116832614 0.002549792 0.15441209 0.06543897
0.19844596 -0.22724192 0.2900933 0.051729858 0.3452073 -0.43912947 0.07111706 0.45124525
-0.16676028 -0.40799177 0.4091467 0.08967657 -0.14766347 0.3435572 0.06893122 -0.5163929
0.23464896 0.07002863 -0.32899395 -0.13844118 0.33538947 -0.2951791 -0.28820473 0.104511894
0.019378655 0.42013228 0.12774573 0.42661223 -0.42834744 -0.07322111 -0.24796763 -0.33659637
00000000: ce84 6fbe 9093 cf3e 5d05 6d3e fcbc a23e
00000010: 03df fc3c 3629 a13e 8267 34be 23d0 1e3e
00000020: cebe 84be 4782 a13e 219f d6be 5180 4ebe
00000030: cbb5 11be 46c7 92be d653 7ebd 5262 213d
00000040: 469b aebb 2d2e 303e 9da1 10bd 5d8c ab3d
00000050: 5188 8bbd d2b3 1dbe 0c5d 513e b467 38be
00000060: a28c c53a 1f70 703e 2bc4 babd 197a 94bd
00000070: cc65 133e 6602 803e a12b 89be 89cd 3bbe
00000080: 69fe 96be 1095 ddbd d811 59be 17b2 7b3e
00000090: 0e21 043e c7b2 81bc 6a78 3a3d e0e8 83bc
000000a0: 2b05 dfbe eca5 823e ea40 dabe 52d2 8a3e
000000b0: a92c bbbe cf61 483e cf4f d43d b2f9 96be
000000c0: e586 6b3e 5b46 77bd 04d5 4fbe 0177 cbbd
000000d0: 0b21 1c3e 9ee0 ed3b a09e c9be e3ed b23d
000000e0: d29a 413d a7d9 823e ef09 933e 0033 c9bc
000000f0: c775 53be 62f7 10be 93cc 8ebe 6a3f f0be
00000100: 1d72 0fbe 9624 eb3e a51a 293e 2538 c4bd
00000110: 92c1 c3be 1bb2 9c3e cb0e 573e abda 9f3e
00000120: b1a2 65bd bff4 43be b989 dd3e 4c2b a4be
00000130: 3c77 acbe a0d8 14be 5ce0 b6bd 5b5d 63be
00000140: 06a7 c53d b961 8e3e 1519 ce3e 5c5d 0f3e
00000150: 27ce fcbd 0bcc d9be 932a 0cbe f006 90be
00000160: 65b1 7b3e 35cd 6dbe 77ea 983e 5e94 72bc
00000170: 5a2e adbe 8033 cb3d ebea bd3d 5e8b 483e
00000180: 536c 133e 1401 c9be d08d c83e 2a1b 3fbe
00000190: d8a9 88be f705 56bd 9fec 823d eac2 3f3d
000001a0: d548 7d3e c1b1 ac3e 1950 ad3e e1c5 083d
000001b0: 4c3d b43c 5b51 7b3b 5e8c 613e 69de 2fbc
000001c0: f141 cd3e 7bc1 4e3e e6d4 abbe cd78 223d
000001d0: 1f57 7dbe 2b53 46be ef02 4e3e 1256 8ebd
000001e0: 1fc0 093f 3a7e d9bd 1b0d 3cbe cc22 93be
000001f0: 1458 7a3e e595 e4bd a677 a8be b88c 8ebe
00000200: 83b3 a73b a178 92be c192 d63e 2351 03be
00000210: 662c 993e 5723 bb3d 816d b9bd d2b6 863e
00000220: 076a 5e3d 1786 f1bd 14f9 b2be 1bb7 cabd
00000230: b14c 443e db3e 6fbe e009 c5be 0b1e 7dbe
00000240: 1bdd a7bd 8963 1bbe 6c45 9abe 0352 c43e
00000250: 9cba 19be 64bc 263e 8fef d83d 52cf 923e
00000260: 87f7 7d3e 8056 b4be 9c2f 503e a008 b1bd
00000270: 8f2c 57bd 67dd cebe 6f66 c3be 4bc0 613e
00000280: 066b 533e 2d86 6fbe 1b92 75bd 58fb 4abe
00000290: 3617 1b3e b634 8c3e 9d19 a1be 9eb8 30be
000002a0: 3d64 b7be 9f1b 913b 06a4 fe3d 1907 a9be
000002b0: 3fe3 fcbd 42dd 2d3e 3a81 e03e b626 a23e
000002c0: 5bf3 9d3e 6804 e23e 4613 c73e 19e1 81bc
000002d0: b6f2 c03e fc2b 6a3e 8e1f bbbd 18fa 223d
000002e0: d39f 603e c1ce f83d f329 953b cf5f 8b3d
000002f0: 5a5c 113c 43ea bcbd b1cb a03e b08b 4abe
00000300: a60e 073e e134 35be 2d61 793e b106 843d
00000310: bbe9 19be ebbc 7abd 21ba 43bd 4178 ef3e
00000320: dcce 8ebe c8d7 ad3e b03d 2b3e cab6 d23e
00000330: 97dc 16be 1604 50be e5ce 8ebe 40ef 14bc
00000340: 7374 77be 63e2 90bc 4b72 283e 1655 4a3e
00000350: 0b4c 20be 3076 c03e 517a b73e 1509 f4be
00000360: 1242 e03d 6580 a3be 0811 dd39 1293 a0be
00000370: f045 efbd 691a 273b 341e 1e3e de04 863d
00000380: 6b35 4b3e 1bb2 68be 1c87 943e b0e2 533d
00000390: 03bf b03e 94d5 e0be d2a5 913d 9e09 e73e
000003a0: 35c3 2abe 4ce4 d0be ad7b d13e 59a8 b73d
000003b0: 1835 17be bbe6 af3e d02b 8d3d 5332 04bf
000003c0: d147 703e 2c6b 8f3d e571 a8be 86c3 0dbe
000003d0: 2bb8 ab3e b721 97be 928f 93be 550a d63d
000003e0: fcbf 9e3c 941b d73e c7cf 023e eb6c da3e
000003f0: 5b50 dbbe f3f4 95bd 3aeb 7dbe 5c56 acbe

functional_19/dense_39/MatMul;StatefulPartitionedCall/functional_19/dense_39/MatMul f4 [1, 12]
-0.13133074 0.14685546 -0.34423468 0.39627612 0.3598052 -0.35685265 -0.026063971 0.06572217
0.37932637 0.68304944 -0.18739714 -0.54942816
00000000: 917b 06be 4761 163e 873f b0be b4e4 ca3e
00000010: 6338 b83e 64b5 b6be 1c84 d5bc 5899 863d
00000020: 1137 c23e 54dc 2e3f 09e5 3fbe 53a7 0cbf
