infl_indiv/SC_testing/infl_test.tflite (tflite, 28824 bytes, 11 tensors)

dense_66/bias f4 [12]
00000000: 0595 4b3d 4fc8 88bd 40d8 2bbd 1d40 26be
00000010: 7b60 983c 9cab c4bd 3bff 223d 8f7f a83d
00000020: 0000 0000 6938 b33d 3412 d33b 6598 683d
0.049702663 -0.06678831 -0.04195428 -0.16235395 0.018600693 -0.096030444 0.039794188 0.08227455
0.0 0.08750994 0.006441379 0.05678596

dense_65/bias f4 [24]
00000000: c23d f8bc 4b41 ddbb 1d42 54bc 6e4e 503d
00000010: 0ee6 833c e3b8 11bd 5c5d bdbd 6683 a63c
00000020: b1e7 653d 3446 1f3d 70ce 4f3d 9e41 d2bd
00000030: 53ad 3e3d bd4d d53c bc0f c53d f0dc bc3d
00000040: 7458 543d 6a7c 96bd f800 893d c1a6 ca3d
00000050: 286e dd3c 9246 c7bc 1a27 073d e8a7 ca3d
-0.030302886 -0.0067521683 -0.012955216 0.050856046 0.01610091 -0.035576712 -0.092463225 0.020326328
0.05612916 0.03888531 0.050733984 -0.10266422 0.046552014 0.026038045 0.09622142 0.09221828
0.051842168 -0.07347949 0.06689638 0.09895087 0.027030066 -0.024325643 0.032996275 0.09895307

dense_64/bias f4 [36]
00000000: 333b 6bbd b8f8 b3bd 0907 5fbc e00f bebc
00000010: 24b5 423d 0a74 3abd 4415 9a3d 3958 91bc
00000020: c93f c9bd 1c83 973d 8882 8a3d f872 353c
00000030: 93be 1bbd 1751 823d 7db7 cebc 9506 00bd
00000040: 55f1 92bb a593 63bc 30ea 8abd 78c7 90bb
00000050: 80d4 01bd 89bf f33c 557c be3b 0682 343d
00000060: d052 46bd 1649 2c3d 9d18 92bd 9d0e 3b3d
00000070: 27c1 7a3d e5b6 273d 3008 cabc a06e 86bd
00000080: 98e9 9bbd 64dd 26bd b70b 273d 7f52 da3c
-0.057429504 -0.08787674 -0.013612517 -0.02320093 0.04753603 -0.04552082 0.07523587 -0.017742263
-0.09826619 0.07398054 0.06763178 0.011074774 -0.038023543 0.06363123 -0.025233978 -0.031256277
-0.0044843354 -0.013890182 -0.06782949 -0.00441831 -0.031696796 0.029754417 0.0058131614 0.044069313
-0.04841882 0.042061888 -0.07133601 0.045668233 0.06121936 0.040945906 -0.024662107 -0.06564069
-0.07612914 -0.04073848 0.040782657 0.026650665

dense_63/bias f4 [64]
00000000: 6e56 8b3d 41b6 06bd a018 33bd 2136 473e
00000010: ecbd 1b3d b54b ad3c c2d2 87bd f37b 77bd
00000020: 0478 5b3d 8b1f 743d 2b03 003e 4819 953d
00000030: 4294 68bd 3794 c8bb 33a2 963c 161b 87bd
00000040: 650d e7bc bc5d 403e fd38 b4bd 35f2 cabc
00000050: 8672 033e 1759 05bd 1cf0 a4bc 86f5 3abd
00000060: 76b8 963d 8e17 063c b69f 3cbc 9402 583d
00000070: 7f8c 973d 71ea 19bc 712d 0fbe 735c 88bb
00000080: 6371 0fbd 7296 c03d 20f1 89bd a33d 943c
00000090: 54e5 283e d6a5 023e 9819 f73c 7bad 88bc
000000a0: 92e3 7ebd 9386 9ebc c10b ef3c 25cf c53d
000000b0: 95ff c3bc cebb c93c 53b4 823d 0f50 a83b
000000c0: 1732 913c 34a5 24bd 8bb1 0ebe 98e6 98bd
000000d0: f1cf d23c a6bf bd3d 30bf 583d 7cea c83d
000000e0: c62a dd3d 4a08 ab3d b2a7 df3d fd3e 833d
000000f0: 39dc a1bd 73df cabd 21b9 90bd 104c 14bc
0.068035945 -0.032888655 -0.043724656 0.19454242 0.03802292 0.021154264 -0.06631996 -0.06042094
0.053581253 0.059600394 0.12501208 0.07280213 -0.056782015 -0.006121184 0.01838789 -0.06596963
-0.02820463 0.18785757 -0.08799932 -0.024773696 0.12836656 -0.032555666 -0.020134024 -0.045644306
0.07359402 0.008184327 -0.011512687 0.052736834 0.073998444 -0.009394274 -0.13982178 -0.0041614114
-0.035020243 0.09403695 -0.06735444 0.018095797 0.16493732 0.12758574 0.030163571 -0.016684284
-0.062228747 -0.01935128 0.02918041 0.0965865 -0.023925582 0.024625685 0.0638205 0.005136497
0.01772408 -0.040196612 -0.13934915 -0.07465857 0.02573392 0.0926507 0.052916706 0.09810349
0.10799174 0.083511904 0.10920657 0.064084984 -0.07903332 -0.09905901 -0.070665605 -0.009051338

sequential_31/normalization_41/truediv;sequential_31/normalization_41/Sqrt f4 [1, 10]
00000000: 426b 933c 5f23 d03a 4eed c63f 1978 863f
00000010: d7cb db3f cc57 893f a369 1740 0e5a da3f
00000020: ee77 c335 ab43 5940
0.01799548 0.0015879682 1.554117 1.0505401 1.7171582 1.0729918 2.3658226 1.7058733
1.4563536e-06 3.3947551

Const f4 [1, 10]
00000000: 8c3d e642 0ce1 4344 b572 803f a2e0 103f
00000010: 3882 aa3e 18f8 c13f f3f3 2b3f c49f 5e3f
00000020: 9664 cc46 6b52 353f
115.12021 783.51636 1.0035006 0.5659276 0.33302474 1.5153837 0.6716911 0.86962533
26162.293 0.70828885

sequential_31/dense_63/Tensordot/MatMul f4 [64, 10]
00000000: 9d1d 24bd 455d 873e 7dde 883e 1b1b 88be
00000010: 32d3 3abd 4974 55be 0114 533e e410 623e
00000020: 743d e73a 21fd 65bd e491 debd 94c6 a4be
00000030: 2dd8 1f3e 7da6 8b3e 33d2 603e 4180 7dbd
00000040: c12f 62be 60bd 55be b104 cd3c 3919 2e3e
00000050: 24ef b9bd 5968 24bd 467f c43d f02e b53d
00000060: af61 813e c36c 6d3e 30fc 56be 023d 973e
00000070: 782c 76be d3d5 c2be 6ca5 a73e a22c 39be
00000080: 0cdb a2bd 84e0 223e 7241 903e 463d 29be
00000090: 98b3 37be 4928 09be 2952 19be b71e 233d
000000a0: 7ef2 6bbe eb94 ef3d c380 55bd fd74 093e
000000b0: db4a 1d3e f88f 8a3e 73ce fbbd 03f6 f0bd
000000c0: 5d38 7bbe 9cef 0abe fa4b 82be c3a1 34be
000000d0: b965 143e a2fa 4dbe 3b84 253d 0cc9 8b3e
000000e0: d97d f23d ceae 803d fc14 b23c 1ec4 4e3e
000000f0: bab7 63be d7a8 d9bd 7b9c 803e d5b5 1ebe
00000100: 3dd5 07be e20c 863e e469 2abe f85c 7bbe
00000110: 591a 5cbe 1fc5 7e3e f298 7b3b 5762 a53d
00000120: cd35 07be 6ae7 be3d ce17 afbd a78f bfbd
00000130: effc 6f3e 7162 26bd 8e50 a03e e46c 7abe
00000140: 59a9 143e 1b0f 59be 2821 8c3d 82bb 3abc
00000150: df53 4b3e 96c2 b0be 5c41 8f3e bd22 bfbd
00000160: 00e0 bb3d ccbc 1b3d 9e1b 413e 22f5 553e
00000170: 82ac 57be d129 bebe 920e 22be e480 733e
00000180: cac5 a6be b7cd 5d3e 19d4 f2bd 7fce e8be
00000190: 9f5c 76be ebfa 01be 433d 6c3e 8fec bfbe
000001a0: 01ab a2be f33d 7abe 1155 2f3e b750 d0be
000001b0: 88c5 893e 7e7f 1abe d58e ccbe aa9b cabe
000001c0: dadd f5bd 43ad 853e c017 71be 7abd 6dbd
000001d0: ba32 f33c 931b 6c3d 12ec 01be e274 733e
000001e0: e33e 28be 0db9 283e fdd6 cd3d 1ad0 703e
000001f0: df49 98bc ba6c 623e 74ee 483d d18c e9bc
00000200: e02e f13d 8d81 013e b858 5c3e bd46 b83d
00000210: f61f 8dbe 4040 8a3e 561d 09bd 9d18 cd3b
00000220: 5d1e 9d3e 655c 9e3c 2f41 e8bd 5bca 233e
00000230: 47b9 3c3e d042 bdbd 19e7 9b3d b9c2 183e
00000240: 5f23 15be 84d6 8bbd d722 11be 1890 4e3e
00000250: cc45 663e eeec ec3d 8d99 053e a962 f0bd
00000260: b80d 42bd a468 abbc 11c6 4d3e 442f f83d
00000270: 6432 19bd 3b26 9e3d ed56 da3d ad20 dc3d
00000280: bbcf fc3d fa21 98be 1e62 5fbe 3490 bebd
00000290: 32b0 723d dccd b43e 7af7 183d 0b0d fc3d
000002a0: 0ac4 61be d378 1fbe 5fc3 8a3d 09e9 c8be
000002b0: 2fa2 493e 77a9 d1bd 6658 babe bad6 203e
000002c0: 1937 98be 077c 98bd abb7 cebe 3e21 ba3d
000002d0: 6238 c1bd 30df 9d3c e3cf 4d3e 5146 87be
000002e0: a354 243e 09ed 90bc f2d7 93be a8fc 8f3e
000002f0: 0434 fa3d 7768 5fbd 0763 94be 0015 70be
00000300: 32e2 3b3e 0f72 77bd 2896 b1bd 9c8c 5abe
00000310: e6a4 1f3e 8336 9c3c ab69 1c3e 0fe2 333e
00000320: 3a4e b5bd 51ee 3bbe dd67 07bf e841 a8bd
00000330: f2e9 4cbe adfb d43d 9705 b13d 0ab0 adbd
00000340: a62e 26be ccca 9bbe 04b5 82be 0e1f 983e
00000350: a9ba 033d 1671 c13d b97f 963e c460 cfbd
00000360: eda5 d43e 7b09 dfbd a58c a33b 4198 e7bd
00000370: 9fc6 a2be a46a b63e 4263 50be f87f 563e
00000380: f57c 8cbd d09a 08be c026 8b3c 681e 383d
00000390: 71fe cfbc 6286 9d3c 22eb e73d 884f e1be
000003a0: 5f27 5c3e 2d26 8c3e 7e46 bf3e 8c9b 3d3d
000003b0: ff57 033d d1d4 73bd 2f8d 803c ba86 a93c
000003c0: b645 653d 79de 583e 9cdc 613d f0f8 91bd
000003d0: 4231 f53d e198 4f3d 911f 9b3b 2fc9 8c3e
000003e0: 9213 7f3d 3576 dabe bf9d 9cbc 378f 8bbe
000003f0: 0c1f e53d 3c45 a0bd 2211 993e 9eda c33c
-0.040067304 0.26438347 0.26732245 -0.2658318 -0.045611568 -0.2084514 0.206131 0.22076756
0.0017642216 -0.056149606 -0.1086767 -0.32182753 0.15609808 0.27275458 0.21955185 -0.06188989
-0.22088529 -0.20873022 0.025026651 0.17001809 -0.090788156 -0.040138576 0.09594588 0.08846843
0.2526984 0.2318602 -0.2099464 0.29538733 -0.24040401 -0.3805376 0.32743394 -0.18083432
-0.07951936 0.15905958 0.2817493 -0.1652728 -0.17939603 -0.13394274 -0.14972748 0.039824214
-0.23041722 0.11698326 -0.05212475 0.13423534 0.15360586 0.27062964 -0.122952364 -0.11765673
-0.2453322 -0.13567966 -0.2544859 -0.17639832 0.14491929 -0.2011514 0.040409308 0.27301824
0.1184041 0.06283341 0.021738522 0.20192 -0.22238055 -0.10627907 0.25119385 -0.15499051
-0.13264938 0.26181704 -0.16641957 -0.24547184 -0.21494426 0.24879883 0.0038390723 0.080753975
-0.13204117 0.093214825 -0.08549462 -0.093535714 0.2343633 -0.040621225 0.31311458 -0.24455601
0.14517726 -0.21197169 0.068422616 -0.011397244 0.19856213 -0.34523457 0.27979553 -0.09332798
0.09173584 0.038021848 0.18858191 0.20894292 -0.210619 -0.37141278 -0.1582587 0.23779637
-0.32572776 0.21660505 -0.11856861 -0.45470044 -0.2405877 -0.12693374 0.23070244 -0.37485167
-0.3177109 -0.24437694 0.17122294 -0.4068658 0.26908517 -0.15087697 -0.39952722 -0.39571887
-0.120052055 0.2610875 -0.23544216 -0.058042027 0.029687274 0.057643484 -0.1268771 0.23775056
-0.1643024 0.16476841 0.100507714 0.23516884 -0.018589912 0.22111788 0.04905553 -0.02850953
0.11776519 0.12647076 0.21518219 0.08997867 -0.27563447 0.27002144 -0.033475243 0.0062590376
0.30687228 0.019331167 -0.11340558 0.15995161 0.18430053 -0.09241259 0.07612438 0.14918031
-0.14564274 -0.06828025 -0.14173447 0.20172155 0.22487563 0.11568628 0.13046856 -0.11737568
-0.047376364 -0.02092392 0.20095088 0.1211839 -0.037401572 0.07722136 0.10661111 0.1074842
0.12344309 -0.29713422 -0.21814772 -0.09304848 0.059250064 0.35313308 0.037345387 0.12307175
-0.22047439 -0.15573435 0.06775545 -0.39240292 0.19690774 -0.10237401 -0.36395568 0.15706912
-0.29729536 -0.07445531 -0.40374503 0.09088372 -0.09434582 0.019271463 0.20098834 -0.26420835
0.16047911 -0.017691152 -0.2887569 0.2812245 0.122169524 -0.054542985 -0.28981802 -0.23445511
0.18348005 -0.06041151 -0.08671218 -0.213427 0.15590248 0.019068962 0.15274684 0.17566703
-0.08852811 -0.18352629 -0.5289286 -0.082156956 -0.20011118 0.10399566 0.08643644 -0.084808424
-0.16228732 -0.3042816 -0.2552873 0.29711193 0.032160435 0.094453976 0.2939432 -0.101258785
0.4153284 -0.1089048 0.0049911314 -0.11308337 -0.3179216 0.35628235 -0.20350364 0.20947254
-0.06859771 -0.13340306 0.01698625 0.044950873 -0.025389882 0.019229118 0.11324145 -0.4400599
0.21499394 0.27372876 0.3735847 0.04629092 0.03206634 -0.05952913 0.015692322 0.020694125
0.055974685 0.21178617 0.05514203 -0.07127559 0.11972286 0.050682906 0.0047339876 0.2749724
0.062274523 -0.4266831 -0.019118188 -0.27257702 0.11187562 -0.078257054 0.29895884 0.023907956

sequential_31/dense_64/Tensordot/MatMul f4 [36, 64]
00000000: d4bd 953c d933 ae3e 4db5 e5bd 88a6 07bd
00000010: 51b4 21bd d04f 70be fd2e c43d 02c3 3f3c
00000020: dc86 f1bd c252 19be 65f6 0f3d 5fe6 563e
00000030: f995 90bc 326f d4bc 7acd cebe fb54 a63d
00000040: 9bb2 543b e4a9 2ebe dd2e 603e 0811 a83d
00000050: 3a1f bebd 9f38 983e 173d b73e 458a 49be
00000060: 5f87 88bd 375b 87bd 1016 b9be 31ac f63d
00000070: 70dd 1dbe 678c c53c e1bf 9f3e b1bc 8c3e
00000080: ab82 08be 946f 0e3e 97e1 5e3e bf29 88be
00000090: c4ba dbbd b025 5c3e 6f07 973e 1cca 6abe
000000a0: 0910 903d 1d55 adbd 9998 b1bd bc83 ef3d
000000b0: d246 b3bc 7cea 823e 3e05 493e 8d77 5fbe
000000c0: 4e13 b9bd 912b f0bd f291 29be 80bd a1be
000000d0: 0de1 41bd eae8 993d 3a0a 76be fec4 22be
000000e0: 84a1 cf3c 1a5c 44bd a811 5c3d de2b 02be
000000f0: 1fc3 893e 1d60 943d 468d 15be 8c6e 273e
00000100: 9794 f63d 0f7f 07bf 4dc2 cfbd 0889 66bd
00000110: bb1f 07be 1e71 213e 649d 543d 1a9b ec3d
00000120: 8e2f 41be 14f0 08be 0921 b63d e069 4d3e
00000130: 8882 3bbe 31f8 3f3e 42c7 a43e 7fac 7ebe
00000140: 57f1 a03d 5930 7cbd 4f9e 0b3e 1860 683e
00000150: c898 eebe 633e 3abd 56fb 4bbe 275d b8be
00000160: cbdc 85bd a4ab 423e 4686 77be 04ce f53d
00000170: 1bbf ba3d 9cc5 553e 3790 0e3e c099 6ebe
00000180: f87a 87be 6a54 b13e ed0d 12be 0f82 fdbc
00000190: fc86 a53c 9160 5bbe 7bc4 fcbb c0f9 e2bd
000001a0: b29d 953d f67e 6cbe fc24 463e 9362 82be
000001b0: d320 dcbd 08d2 edbc 47c3 513e 4c16 de3b
000001c0: 1cda 603d 8933 d8be 3132 cb3d ca44 99bc
000001d0: 8ab2 84bd 4a3d 0fbd 31b8 8dbe 3591 cf3a
000001e0: 12c5 41be 4021 87ba 9cb5 06be 53b4 6fbc
000001f0: 2eb2 02be 0a78 0abc f78b 5c3e cda8 9dbe
00000200: 8833 303e eded 52be 18d7 33be 2a4d 9cbe
00000210: 5a05 9b3d 7060 48bd ebe5 f2bc e283 24bd
00000220: a65b 92be 5a7d 1ebe 1a5a 7aba 5696 993e
00000230: 4e40 8b3e e4fa 55bd c11f 47be 8c60 24bd
00000240: 8a70 2b3e c189 67be 5600 db3c f756 963d
00000250: 1e23 87be 8ee6 823e f9ee 3d3e 25a0 bebe
00000260: 98ab 2bbe 2414 0bbe 3112 69be e485 9ebe
00000270: f68c c63d 0e65 573d 2feb f9bd fd03 a23d
00000280: c674 a8be f137 d73d 1d8d a4be 637d 6abe
00000290: 0ddb 7fbe d565 8abe f991 a03d ce62 02be
000002a0: 9f00 ddbd 722b 9dbd 93b2 453e 12d0 1c3e
000002b0: 6ff8 233e 9ca6 18be 8a65 6a3e 1fde 443e
000002c0: 48d0 203d 818a 91bd 798d 303d d1a2 c83d
000002d0: 1267 c3be 7a70 f4bb 1661 a6be 8c08 32be
000002e0: 44c5 78be 1e47 5abd 2df4 c83c 96f4 6cbe
000002f0: bd53 8bbc 40e1 b63c 1bec 653e 48a3 023e
00000300: 7d0c 233e 30a1 35be 629c 0ebe 45d6 99be
00000310: 5db9 03be 765b b93d 6359 993b f717 8dbd
00000320: 4c31 72be 8518 c9bd aeb5 e6bd 68bb 9ebe
00000330: 6bc6 13be 19a6 85bd 0025 ddbd 0ac8 33be
00000340: 36a3 d23d be99 3f3d 7231 b5bd 0229 7ebd
00000350: fe5c 453e beb3 86be cb10 7abe 4f7c 15be
00000360: 1687 73be 04db 84be 4318 203e 896e 6e3d
00000370: 67dd 2d3e b1ca e43d 7140 6abe 70c3 d4bd
00000380: 36ad 0e3e 5e5a 7b3e 0e62 c0bd 4b62 eebc
00000390: 50b5 0f3e 47fb 9a3d 5798 97be d019 713e
000003a0: 797d 8b3e a37f 21bc 39cf ab3d 8a6f 3cbe
000003b0: f553 223e 6d85 e23d 78eb 0e3e af35 40be
000003c0: 726c 2d3e b19d 803e 1181 f5bc a7b0 5e3c
000003d0: ad58 213e 7728 063e b22e b33c 1442 6a3d
000003e0: 60f3 e9bc b67a b03d 0d4a a5bc 94e6 5f3e
000003f0: 4554 4bbe 0323 2fbe 7e10 103d edfd 873e
0.018278994 0.34023932 -0.11216221 -0.0331178 -0.039478604 -0.23467946 0.09579275 0.011704208
-0.117933005 -0.14972976 0.03514709 0.20986317 -0.017649638 -0.025931928 -0.4039114 0.081216775
0.003245509 -0.17056996 0.21892877 0.082063735 -0.092833 0.29730698 0.35788795 -0.19681652
-0.06666445 -0.06609195 -0.36149645 0.12044562 -0.15416503 0.0241148 0.3120108 0.2748771
-0.13331096 0.13909751 0.21765743 -0.2659435 -0.10728982 0.21498752 0.2949786 -0.22928661
0.070343085 -0.084635 -0.08671684 0.11695048 -0.021884356 0.25569522 0.19630906 -0.21822949
-0.09036885 -0.1172706 -0.1655958 -0.3158989 -0.047333766 0.07515128 -0.24027339 -0.15895459
0.025345571 -0.047939397 0.053727776 -0.12712047 0.26906678 0.07244895 -0.14604673 0.16350764
0.1204006 -0.5292825 -0.10144482 -0.056283027 -0.13195698 0.15765807 0.051907912 0.11553021
-0.18865797 -0.13372833 0.0889302 0.2005992 -0.18311512 0.18747021 0.32183272 -0.2487049
0.07858532 -0.061569545 0.13634609 0.22692907 -0.46600938 -0.045469653 -0.19920096 -0.3600857
-0.065362535 0.19010788 -0.24172315 0.12002185 0.09118482 0.20876163 0.13922201 -0.23300838
-0.26461005 0.34634715 -0.14263125 -0.030945806 0.020205967 -0.21423556 -0.007713852 -0.11082792
0.073054686 -0.23095307 0.19350046 -0.2546583 -0.10748448 -0.029030815 0.20484649 0.0067775603
0.054895505 -0.42226818 0.099216826 -0.018709559 -0.06479366 -0.03497056 -0.2767959 0.0015836122
-0.18922833 -0.0010309592 -0.13155216 -0.014630395 -0.12763283 -0.008451471 0.21537767 -0.30792847
0.17207158 -0.20598574 -0.1756252 -0.30527622 0.0756938 -0.048920095 -0.029650649 -0.040164836
-0.28585547 -0.15477505 -0.00095501693 0.2999751 0.27197498 -0.05224122 -0.19445707 -0.040131137
0.16742149 -0.22611143 0.026733559 0.07340806 -0.2639398 0.25566524 0.18548192 -0.37231556
-0.16764677 -0.13581902 -0.22760846 -0.30961525 0.09694855 0.052586608 -0.12203061 0.07910917
-0.3290159 0.10508717 -0.3213891 -0.22899394 -0.24985905 -0.27030817 0.07840342 -0.12733003
-0.10791134 -0.07674302 0.19306402 0.15313748 0.16012739 -0.14907306 0.22890297 0.19225357
0.039261132 -0.07106496 0.04310367 0.0979668 -0.38164574 -0.0074596973 -0.32495946 -0.17386073
-0.24294001 -0.05329048 0.024530495 -0.23140177 -0.017007703 0.022324204 0.22453348 0.127576
0.15922733 -0.1773727 -0.13926843 -0.30046287 -0.12863679 0.09050648 0.004679845 -0.068893366
-0.23651618 -0.0981913 -0.112651214 -0.31002355 -0.14431159 -0.06525821 -0.10798073 -0.17556778
0.10285036 0.04677748 -0.088473216 -0.062050827 0.19273755 -0.26309007 -0.24420469 -0.14598201
-0.23782 -0.25948346 0.15634255 0.058210883 0.1697899 0.11171473 -0.22876145 -0.10388839
0.13933262 0.24546191 -0.093937024 -0.029099604 0.14034009 0.075674586 -0.29608414 0.23545003
0.27244166 -0.009857091 0.08389134 -0.18401924 0.1585234 0.11060605 0.13957012 -0.18770479
0.169359 0.2512031 -0.02996877 0.013591922 0.15756483 0.13101374 0.021872852 0.057191923
-0.028558433 0.08617155 -0.020176912 0.21865302 -0.19856365 -0.171032 0.03517198 0.26560917

sequential_31/dense_65/Tensordot/MatMul f4 [24, 36]
00000000: f270 003f c217 7cbd db2e 9abe 91e5 0abc
00000010: 762f cb3e 1e8a b1be f64a 183f 8b82 95be
00000020: b77d 5ebe 5e1f 513d 450f 3cbd 8400 c8bd
00000030: 6517 cb3d d5ff 483e 8999 533d 0894 63be
00000040: 243d 153f 646a 9f3e 68bf ee3c 8629 0b3e
00000050: 54f1 363e 9f22 893e d7c4 663c 8d37 463e
00000060: 4bc4 ad3d adbb 1c3e 1452 da3d 8ea7 4cbe
00000070: 5adc 013e 79ae 6b3e c21a c4be 7d56 69be
00000080: 4982 623d 9d8b fdbe ae95 853e 2e67 c13e
00000090: f487 6dbd fd90 6f3e 9b83 713e 2369 213d
000000a0: 74a9 483d a1ad 123e dec7 54bf 7114 76be
000000b0: d72d d03e 8729 babe 922d 86be ebc5 f73e
000000c0: f904 6bbe 0c4c af3e b79c c63e 6bc9 883e
000000d0: e0a3 03bf 4737 dfbd cfdc c23e 26d2 0bbf
000000e0: ae86 01bf 478d a33e 52d4 9cbe edc9 86be
000000f0: 3654 973e 9303 b9be a20c a03e 7ef1 1e3e
00000100: 3cbc b73d ca05 143e 6d66 3cbe ea49 153c
00000110: 39c9 6dbd 8b47 b03e 7970 8abe 34bb 88bd
00000120: 0c88 033f 0abf d93e 5039 cdbd 8700 d5bd
00000130: 1c8a 213e ea74 24bd 11f3 013e 8ae8 393e
00000140: a47e ecbe 59b3 03bf 4408 2fbe aa10 b9bd
00000150: b6e2 a23c 12c6 45be e10a d53d 7436 fb3b
00000160: 1ad5 313e 0b14 3b3e 5267 51bd eecb 5abe
00000170: 8b47 d9bd 9d88 6c3e bf91 ca3d 42bd d33e
00000180: 10ea 71bc 327d f93e f668 553e d7c4 86be
00000190: 9c40 c5bc fd22 90be 39be 6e3e a8f5 a3be
000001a0: a07a a43c 2d08 f0bd bdcc 0c3e 280a ee3c
000001b0: 6e04 bfbe c4e0 c23d a803 c63e 3404 9dbd
000001c0: 9ca3 a23d 1bce dc3d b93a 17bf 24bb 0c3e
000001d0: d6b3 ea3d ef99 72be 101b 8a3e 1eb8 913e
000001e0: 5948 063c c477 eb3e de85 7abe b557 e73e
000001f0: f0e2 bdbe 3344 a5bd dc65 2c3b ef1c 48be
00000200: 060c 01bf 0512 313e 56ba 36bd 52b8 f1be
00000210: 7b5e febc a8ac cabd 286d 013f 3ed0 c13e
00000220: 609f 813e 823d 28be e62b 743e fc4e b33e
00000230: 414a ab3d dedd 033e 16b4 de3d 3869 bebd
00000240: 68a5 f13e 5893 173d 9cd6 8d3e 54ef 003e
00000250: 67ce d33e da97 95be 25f7 413d 3714 dc3c
00000260: db45 77be cedf 7e3e 31c2 27be c9fd 713e
00000270: e396 243d a9c1 f0bd 1ebd e33d 2d16 5b3e
00000280: a9ee 8abe a74a edbd 17a5 a93e fb3c e93d
00000290: af6e 673e 0de6 aa3d 6b5e 73be 2a42 eb3e
000002a0: 144a 043c 9b37 7abd 2673 c9be 57f7 debd
000002b0: 025f 16be 71a4 6c3e d2e6 393d a7fb 88be
000002c0: 096e c0be b8b8 a5be b3d1 123e 6bd4 123e
000002d0: 0c44 95bd 5dee 2f3d 12a5 ebbd e41a 823d
000002e0: f2c6 563e 3ce6 3abe 9cb3 e23e 0fc3 973d
000002f0: a332 d93d 00fc 05be 2a5c f2bd ac46 3d3e
00000300: db7d 363e 6f86 9c3d 2616 183e 43dc 8dbe
00000310: a483 8f3e c855 43be 8c73 dbbd ec96 b53c
00000320: 9ab1 c63e 87ac 15bd 7fba c03e 9cf2 ebbe
00000330: b2c2 83bd c15f ee3d 35be c2be 4906 18be
00000340: 6a6b c3bc 832c 233e 7507 bdbe de80 69be
00000350: 5357 7d3e 3d59 1a3e f204 edbc 4315 9d3e
00000360: 6de6 2f3c a010 4a3e 7629 35be 24f9 50bd
00000370: c390 0a3e 90f1 043e 57b4 59be 2e23 04be
00000380: 038c 243c 8463 253e 32cb 06bf b211 293e
00000390: 8955 173d 6d62 6a3e 4368 48be 81d5 94be
000003a0: 3cd8 a53c a011 71bd 8ff1 91be 9c8f a4be
000003b0: 5eb3 0fbe 4648 9bbe 84d2 4c3e b9b4 92be
000003c0: 8c49 203e 77c5 47be f20a 633e e19e e6be
000003d0: 84c1 c1be 5f45 abbe fe4b 54be 03a7 6a3d
000003e0: af50 b93d c8c6 82be 79ca ef3c f0de febd
000003f0: 49a7 4d3d 3169 003e b294 66be c882 d73d
0.5017234 -0.061546095 -0.30113873 -0.008477584 0.39684647 -0.34675688 0.5948938 -0.2920116
-0.21727644 0.051055305 -0.045913 -0.09765723 0.099165715 0.19628842 0.051660094 -0.22224438
0.5829642 0.31135857 0.029144004 0.13590059 0.17865497 0.26784226 0.014085016 0.19357128
0.084847055 0.15305968 0.106601864 -0.19985792 0.12681714 0.23015775 -0.38301665 -0.22786899
0.05530003 -0.4952058 0.2609076 0.37774032 -0.057990983 0.23395152 0.2358536 0.039406907
0.048989728 0.14324047 -0.83117473 -0.24031235 0.40659973 -0.36359808 -0.26206642 0.48393187
-0.22951116 0.34237707 0.3879144 0.2671617 -0.5142193 -0.10899215 0.3805909 -0.54617536
-0.5059613 0.31943724 -0.30630738 -0.26325932 0.29556435 -0.3613554 0.31259638 0.1552181
0.0897145 0.14455333 -0.18398447 0.009111861 -0.05805323 0.34429583 -0.27038935 -0.06676331
0.51379466 0.42528564 -0.10020697 -0.10400491 0.15775341 -0.04015056 0.12690379 0.18155113
-0.4619037 -0.5144554 -0.17092997 -0.090363815 0.019883495 -0.19313839 0.104024656 0.0076664034
0.17366448 0.18269365 -0.051123925 -0.21366856 -0.10609349 0.23098989 0.0989108 0.4135533
-0.0147652775 0.4872833 0.2084082 -0.26322052 -0.02407866 -0.28151694 0.23314752 -0.32023358
0.020078003 -0.117203094 0.13749976 0.029057577 -0.37308067 0.09515527 0.38674664 -0.07666817
0.07941362 0.10781499 -0.5907398 0.13743263 0.11460082 -0.23691534 0.26973772 0.28460783
0.00819596 0.4598981 -0.24465129 0.45184103 -0.37087202 -0.080696486 0.002630583 -0.19542287
-0.5040897 0.1729203 -0.044611298 -0.47210938 -0.031050911 -0.09896213 0.50557184 0.3785419
0.25316906 -0.16429713 0.23844871 0.35021198 0.08363772 0.12877604 0.108741924 -0.09297413
0.47196507 0.037005752 0.27702796 0.12591296 0.4136841 -0.29217416 0.047354836 0.026865108
-0.24147741 0.24890062 -0.16382672 0.23631968 0.04018296 -0.11755688 0.111200556 0.21395178
-0.27135208 -0.115865044 0.33133766 0.11388584 0.22600816 0.0834466 -0.23766486 0.45948917
0.008074302 -0.061088186 -0.39345664 -0.1088702 -0.1468468 0.23109604 0.045386143 -0.26754496
-0.3758395 -0.32367492 0.14337806 0.14338844 -0.072883695 0.04295193 -0.11506094 0.06352785
0.20974329 -0.1825189 0.44277656 0.07410251 0.10605361 -0.13084412 -0.11833985 0.1848399
0.17821448 0.07642829 0.14852199 -0.2770711 0.2803012 -0.19075692 -0.10715398 0.022166692
0.38807374 -0.036541488 0.37642285 -0.46083534 -0.064336196 0.11639357 -0.3803574 -0.14846148
-0.02385493 0.15934949 -0.36919752 -0.22803065 0.24740343 0.15073104 -0.028933022 0.30680284
0.01073609 0.19732904 -0.17691597 -0.05101885 0.13531785 0.12982774 -0.212602 -0.12904045
0.010043147 0.16151243 -0.526538 0.16510656 0.036946807 0.22889109 -0.19571023 -0.2906914
0.02024471 -0.0588547 -0.28504607 -0.32140815 -0.14033267 -0.30328578 0.2000218 -0.28653505
0.15653056 -0.1950892 0.22172144 -0.4504309 -0.37842953 -0.33451363 -0.20732114 0.05728818
0.09048592 -0.25542283 0.029271351 -0.12444866 0.050208364 0.12540127 -0.2251766 0.105229914

sequential_31/dense_66/Tensordot/MatMul f4 [12, 24]
00000000: 3024 cebe ef20 acbe fc6f 8a3d ae43 cebe
00000010: 7f4c 533e 137f 0c3e 926a b63e 6e64 843d
00000020: 409e 6b3e 6815 c5bd b30e 083d 7b5b 94bd
00000030: 6f48 693e 996a a93e ddcc 2dbd 19bf 62be
00000040: 4603 0b3d 08d0 b1be e04b aebe e9c7 d4bd
00000050: 4d63 bb3e 9a89 d03e 5dd1 86be 044b 9dbc
00000060: 70d9 0a3f 9ace a0be 2038 443e ad26 983d
00000070: b75b 9fbe 4d5a 293e 9e2d 3f3e 8fd3 7abe
00000080: a235 97bd efbd a3be 1bdb d0be 784c f3bc
00000090: 5721 203f c0c4 083f 6344 28bc 75d1 20bd
000000a0: 6e6e 9cbe 33c7 94be e349 683e 0209 893e
000000b0: d6d8 d33e 8a89 993e 9e01 dd3e b4e7 3ebc
000000c0: b647 82be d4b2 b33e 2a98 1e3d 26bc 75bd
000000d0: 4b6d 063d 01ab 23be e48e 5f3e 8498 123f
000000e0: 3e6f 2cbe bdb3 9e3d c2ad b0ba 46f0 623e
000000f0: 5523 543e 6ee1 253f dd93 133f b583 8ebd
00000100: 6f48 c73e 69d6 b73e 655a 353e 1e69 fb37
00000110: 214b f9bd b0f9 3bbe 38fa 133e 8dd0 e93d
00000120: 8bbb b03e a5e4 d1bd 0850 10bf c47e 4c3e
00000130: b93c 78be 2240 c9bd c4d0 83bc a518 903e
00000140: e717 113e c729 fabd adc3 cbbe fbce 12bf
00000150: 01f6 713b 0463 bcbe c845 423e 86c9 703c
00000160: ba1d 513f b9d9 603d 4370 4abb cabf 69bd
00000170: fac5 1e3f 81d0 d5be 7f07 773d d4ae a5bd
00000180: 8a33 8ebe 9bf5 37bf ae98 b6be 03d7 80be
00000190: c7a0 9a3e ddf0 c13e 4bb0 713e cc92 323e
000001a0: a794 aa3e 60ac f5bd 156b 85bd 3a12 80be
000001b0: b981 f33d 3231 a53d fb8a 74bd a316 913d
000001c0: 6d43 d83e aecb d5be 69e8 7bbe e022 15be
000001d0: ee1c 9f3e 416a 233e 9add 39bd 9be9 12be
000001e0: f68f 5dbe 0594 e13c ed64 29bf c44f 69be
000001f0: 1bcd b03e 65ba 47be c889 b0bd 6aba 323f
00000200: bef7 113e bd29 b9bd aae3 0abb 6ef2 06bf
00000210: d1a2 c73e 662c 2bbf a63b ca3e fc2c 103f
00000220: 7fd9 983e daf2 423e bba9 213f 3e6b 0dbf
00000230: 6150 0d3f f902 4fbd adb1 d03e 1e40 293e
00000240: ebd6 c8be 6e3a 1f3f 90a2 883e 8343 e13e
00000250: c03a 24bf b216 ee3d 8a44 f13e ab46 e9be
00000260: 4da8 083f 3795 253f 7b25 6c3e 6c1b e93e
00000270: 46a3 2abf 3b00 803e cb6c 59bf 1eda b7be
00000280: e18c a4be 1706 a13e a3ca 3abf 517a 0b3e
00000290: 11c6 4ebf e690 173f 5c50 08bf 9f5b 80be
000002a0: 0915 f1be 2dcd 133f 6606 373f f200 e13e
000002b0: bb21 d5bd 8c27 dcbe f7d4 e3be f495 c9be
000002c0: ee9d dc3e f72f c33e 12b4 9a3e e77d 933e
000002d0: 2c08 0abf cc63 673d 004c 46bf 45c7 dfbe
000002e0: 7957 4abf e983 a6be dbea 00bf 3846 bd3d
000002f0: 3f82 66bf 5ba5 be3e 4a38 a0be c315 f1be
00000300: dc2c ecbd c8f9 74bd e860 243e da9e acbe
00000310: 3c64 8cbd 6a64 8ebe 9fac 93be e9d4 93be
00000320: d005 34bd 5c3e aa3e 9c6a cfbd 00be 42bc
00000330: 959d b7be 9026 6c3e 2932 bcbe b074 6b3e
00000340: 1821 143e f47c babe a5c9 bdbe 8a96 4abe
00000350: dcf0 dcbd 7351 c8be c036 3d3d 1634 61be
00000360: 3491 c9be 60be 273f 7654 513f 5e83 b43e
00000370: ca6f f63d f050 9fbe 078a a93e d873 1dbf
00000380: c5eb 563e 2e57 743e f93b 6f3e c6ce 983e
00000390: 900e 973c 3fe1 333d 3b29 22be 852f 12bf
000003a0: 2275 81bf 91e7 e23e 1ee7 d5be 85c3 d13e
000003b0: aab9 0cbf 99d6 083f 5610 743e 80ef cebe
000003c0: d1b4 7cbe a740 c93d 79f5 2ebf 5223 08bd
000003d0: 7877 793e c7ad b43e 05c3 933e e0e0 433e
000003e0: 8dc2 193d 8a2f 153f f19b a83c 2ee7 fd3d
000003f0: 614f 86be c32b f03c 3245 16be ebd5 ffbd
-0.40261984 -0.33618876 0.067596406 -0.4028601 0.2063465 0.1372035 0.35628182 0.06464468
0.23009586 -0.096232235 0.033217143 -0.07244011 0.22781537 0.3308914 -0.0424317 -0.2214321
0.03393867 -0.34729028 -0.34042263 -0.10389692 0.36599198 0.40729982 -0.26331607 -0.01920081
0.54238033 -0.31407624 0.19162035 0.07429252 -0.3112466 0.16538353 0.18669745 -0.24494766
-0.073832765 -0.31980845 -0.40792164 -0.02969955 0.6255087 0.53425217 -0.010270211 -0.039262254
-0.30553 -0.29058227 0.22684436 0.26764685 0.4137637 0.29987746 0.43165296 -0.011651922
-0.25445336 0.35097373 0.038719334 -0.059993885 0.032819074 -0.15983202 0.21831852 0.5726397
-0.1683931 0.07749126 -0.0013479518 0.2216197 0.20716603 0.64797103 0.57647496 -0.06958715
0.3892245 0.3590577 0.17710264 2.997048e-05 -0.12172533 -0.18356967 0.1445092 0.11416731
0.34518084 -0.102486886 -0.5637212 0.19970232 -0.24241914 -0.098266855 -0.016090758 0.28143802
0.14169274 -0.12215 -0.39797726 -0.5734708 0.0036920311 -0.36794293 0.18971932 0.014696484
0.81685984 0.054895137 -0.0030889667 -0.05706767 0.6202084 -0.41760638 0.060309883 -0.080899864
-0.27773696 -0.7185914 -0.3566336 -0.2516404 0.30200788 0.37879077 0.23602407 0.17438811
0.33316538 -0.119957685 -0.06514565 -0.25013906 0.11889977 0.08066024 -0.059702855 0.07084396
0.42238942 -0.41756958 -0.24600376 -0.14564085 0.3107676 0.15958501 -0.04537735 -0.14346926
-0.21636948 0.027536402 -0.66169626 -0.22784334 0.34531483 -0.19504698 -0.0862003 0.69815695
0.14254662 -0.09041164 -0.0021192827 -0.5271367 0.38991407 -0.6686462 0.39498633 0.5631864
0.29853436 0.19037953 0.63149613 -0.55241764 0.55200773 -0.050539944 0.40760556 0.16528365
-0.3922647 0.6219853 0.26686525 0.4399682 -0.64152145 0.116254225 0.47122604 -0.45561728
0.53381807 0.6468081 0.23061173 0.45528734 -0.66655385 0.25000176 -0.8493163 -0.35908598
-0.32138732 0.3144996 -0.7296545 0.13620879 -0.80770975 0.5920547 -0.5324762 -0.250699
-0.4708636 0.5773495 0.7149414 0.43946034 -0.10406824 -0.42998922 -0.44498417 -0.39372218
0.4308924 0.38122532 0.30215508 0.28806993 -0.5391872 0.056491658 -0.77459717 -0.43706718
-0.7903972 -0.32522514 -0.5035836 0.09241909 -0.9004249 0.3723553 -0.31292945 -0.47086915
-0.11531994 -0.059808522 0.16052592 -0.33714944 -0.06855056 -0.27810985 -0.28842637 -0.28873375
-0.043950856 0.332507 -0.10127756 -0.01188612 -0.35862413 0.23061585 -0.3675702 0.22993731
0.1446575 -0.36423457 -0.37067905 -0.19783989 -0.10788128 -0.3912464 0.04619479 -0.21992525
-0.39368594 0.65524864 0.817695 0.35256475 0.12033041 -0.31116438 0.3311312 -0.6150489
0.20988376 0.23861381 0.23362722 0.29845256 0.018439561 0.043915983 -0.1583604 -0.5710376
-1.0113871 0.44317296 -0.4177789 0.40969482 -0.549708 0.5345245 0.23834357 -0.404171
-0.24678351 0.098267846 -0.6834331 -0.03323681 0.2436198 0.35288832 0.28859726 0.19128752
0.037539054 0.58275664 0.020582171 0.1239761 -0.26232436 0.029317742 -0.14674833 -0.124919735

sequential_31/dense_67/Tensordot/MatMul f4 [1, 12]
00000000: 9191 26bf 6a19 f53e 8b5a 5ebf 6b93 70be
00000010: e338 463f 44e6 a1be 0c0c 653f 3c8e 643f
00000020: 5c1e d03e 8dd1 ec3e dda2 52bf 91cb 0dbf
-0.65065867 0.47870952 -0.8685691 -0.23493735 0.7743055 -0.3162099 0.8947151 0.8927953
0.40648162 0.46253625 -0.8227976 -0.5538874
